lib/mesa/src/gallium/targets/teflon/tests/mb-005.tflite (tflite, 2768 bytes, 1 tensors)

MobilenetV1/MobilenetV1/Conv2d_3_depthwise/weights_quant/FakeQuantWithMinMaxVars u1 [1, 3, 3, 128] scale=0.0605373 zero_point=160
000000 9f 9f a2 a0 a0 9b a9 9c a1 9f a4 9f 9c 9f 9e 9e
       -0.0605373 -0.0605373 0.1210746 0.0 0.0 -0.3026865 0.5448357 -0.2421492 0.0605373 -0.0605373 0.2421492 -0.0605373 -0.2421492 -0.0605373 -0.1210746 -0.1210746
000010 a3 97 a6 a3 9d a0 a1 a0 aa b1 a7 a2 a1 9a 9e a4
       0.1816119 -0.5448357 0.3632238 0.1816119 -0.1816119 0.0 0.0605373 0.0 0.605373 1.0291342 0.4237611 0.1210746 0.0605373 -0.3632238 -0.1210746 0.2421492
000020 9e a1 a4 a1 9d 9e bc ab c0 a3 9f a1 8c a3 9d 9d
       -0.1210746 0.0605373 0.2421492 0.0605373 -0.1816119 -0.1210746 1.6950444 0.6659103 1.9371936 0.1816119 -0.0605373 0.0605373 -1.210746 0.1816119 -0.1816119 -0.1816119
000030 a0 98 9d 9f a1 9e a2 a1 9d b8 a1 a3 a0 a2 a4 a4
       0.0 -0.4842984 -0.1816119 -0.0605373 0.0605373 -0.1210746 0.1210746 0.0605373 -0.1816119 1.4528952 0.0605373 0.1816119 0.0 0.1210746 0.2421492 0.2421492
000040 a3 98 9a 9c 9a aa 9b 9d 9f a1 95 9f 99 98 a0 97
       0.1816119 -0.4842984 -0.3632238 -0.2421492 -0.3632238 0.605373 -0.3026865 -0.1816119 -0.0605373 0.0605373 -0.6659103 -0.0605373 -0.4237611 -0.4842984 0.0 -0.5448357
000050 9e 9e a2 98 a3 a1 a2 a5 b8 a0 9c 99 ac 9d a1 9f
       -0.1210746 -0.1210746 0.1210746 -0.4842984 0.1816119 0.0605373 0.1210746 0.3026865 1.4528952 0.0 -0.2421492 -0.4237611 0.7264476 -0.1816119 0.0605373 -0.0605373
000060 9b a1 ac a2 9c a2 a4 9d 9e 9b 9b a5 a1 a1 9d 9e
       -0.3026865 0.0605373 0.7264476 0.1210746 -0.2421492 0.1210746 0.2421492 -0.1816119 -0.1210746 -0.3026865 -0.3026865 0.3026865 0.0605373 0.0605373 -0.1816119 -0.1210746
000070 9e 9f b2 a0 a0 9e 9f 9c 9c 95 9f a1 a0 a1 af b1
       -0.1210746 -0.0605373 1.0896714 0.0 0.0 -0.1210746 -0.0605373 -0.2421492 -0.2421492 -0.6659103 -0.0605373 0.0605373 0.0 0.0605373 0.90805954 1.0291342
000080 a2 9d a9 91 a3 9d 96 9b 9e 9c 98 a5 a4 a6 a4 a1
       0.1210746 -0.1816119 0.5448357 -0.90805954 0.1816119 -0.1816119 -0.605373 -0.3026865 -0.1210746 -0.2421492 -0.4842984 0.3026865 0.2421492 0.3632238 0.2421492 0.0605373
000090 92 ba 97 97 a9 9b 9e 92 93 b3 b4 9d b8 93 aa 86
       -0.8475222 1.5739698 -0.5448357 -0.5448357 0.5448357 -0.3026865 -0.1210746 -0.8475222 -0.7869849 1.1502087 1.210746 -0.1816119 1.4528952 -0.7869849 0.605373 -1.5739698
0000a0 a4 a9 98 ac a6 ae 86 c4 89 92 a7 b2 9f a5 9e 99
       0.2421492 0.5448357 -0.4842984 0.7264476 0.3632238 0.8475222 -1.5739698 2.1793427 -1.392358 -0.8475222 0.4237611 1.0896714 -0.0605373 0.3026865 -0.1210746 -0.4237611
0000b0 9f a2 9f a3 9e 9b a7 9a a0 90 c0 a3 a9 97 95 aa
       -0.0605373 0.1210746 -0.0605373 0.1816119 -0.1210746 -0.3026865 0.4237611 -0.3632238 0.0 -0.9685968 1.9371936 0.1816119 0.5448357 -0.5448357 -0.6659103 0.605373
0000c0 ac 96 97 af 9b b3 a7 9c 8f aa 97 a5 a6 a9 a0 9a
       0.7264476 -0.605373 -0.5448357 0.90805954 -0.3026865 1.1502087 0.4237611 -0.2421492 -1.0291342 0.605373 -0.5448357 0.3026865 0.3632238 0.5448357 0.0 -0.3632238
0000d0 9e a5 9a 97 a3 9e b1 a5 9a b8 98 9d b9 9e 9b a0
       -0.1210746 0.3026865 -0.3632238 -0.5448357 0.1816119 -0.1210746 1.0291342 0.3026865 -0.3632238 1.4528952 -0.4842984 -0.1816119 1.5134325 -0.1210746 -0.3026865 0.0
0000e0 99 ab 8e a3 a4 94 9c 9c 98 b2 aa ac 89 9c 9f 9c
       -0.4237611 0.6659103 -1.0896714 0.1816119 0.2421492 -0.7264476 -0.2421492 -0.2421492 -0.4842984 1.0896714 0.605373 0.7264476 -1.392358 -0.2421492 -0.0605373 -0.2421492
0000f0 a4 9e 9c a0 9f 9d b5 ac 98 9f 9e 9c a6 aa 78 cf
       0.2421492 -0.1210746 -0.2421492 0.0 -0.0605373 -0.1816119 1.2712833 0.7264476 -0.4842984 -0.0605373 -0.1210746 -0.2421492 0.3632238 0.605373 -2.421492 2.8452532
