lib/mesa/src/gallium/targets/teflon/tests/mb-025.tflite (tflite, 14416 bytes, 1 tensors)

MobilenetV1/MobilenetV1/Conv2d_13_depthwise/weights_quant/FakeQuantWithMinMaxVars u1 [1, 3, 3, 1024] scale=0.12616928 zero_point=211
000000 dc df d9 d9 db de db d8 cb cf cf d9 dc d8 d6 ce
       1.1355236 1.5140314 0.7570157 0.7570157 1.0093542 1.3878621 1.0093542 0.6308464 -1.0093542 -0.5046771 -0.5046771 0.7570157 1.1355236 0.6308464 0.37850785 -0.6308464
000010 dc db ce e4 e0 d9 d9 cd e6 ce e1 de db cf b9 d1
       1.1355236 1.0093542 -0.6308464 2.1448777 1.6402006 0.7570157 0.7570157 -0.7570157 2.3972163 -0.6308464 1.7663699 1.3878621 1.0093542 -0.5046771 -3.2804012 -0.25233856
000020 cf dd cf db db db 78 db cf da da d6 e2 ce dd cd
       -0.5046771 1.2616928 -0.5046771 1.0093542 1.0093542 1.0093542 -11.481404 1.0093542 -0.5046771 0.88318497 0.88318497 0.37850785 1.8925391 -0.6308464 1.2616928 -0.7570157
000030 da cd d9 ce dd ce dc ce df de ce d0 d9 dd de de
       0.88318497 -0.7570157 0.7570157 -0.6308464 1.2616928 -0.6308464 1.1355236 -0.6308464 1.5140314 1.3878621 -0.6308464 -0.37850785 0.7570157 1.2616928 1.3878621 1.3878621
000040 ce ce cc d8 de dd dd ce dc da d8 cf da da d0 d0
       -0.6308464 -0.6308464 -0.88318497 0.6308464 1.3878621 1.2616928 1.2616928 -0.6308464 1.1355236 0.88318497 0.6308464 -0.5046771 0.88318497 0.88318497 -0.37850785 -0.37850785
000050 cd cd e0 cf cd db d8 ce cd de df da cf cb de cf
       -0.7570157 -0.7570157 1.6402006 -0.5046771 -0.7570157 1.0093542 0.6308464 -0.6308464 -0.7570157 1.3878621 1.5140314 0.88318497 -0.5046771 -1.0093542 1.3878621 -0.5046771
000060 da db db dd e3 d6 de cd cc d8 da e0 cf ce d5 cf
       0.88318497 1.0093542 1.0093542 1.2616928 2.0187085 0.37850785 1.3878621 -0.7570157 -0.88318497 0.6308464 0.88318497 1.6402006 -0.5046771 -0.6308464 0.25233856 -0.5046771
000070 db d9 da da da dc df ce cf db cf cf db cf d7 d5
       1.0093542 0.7570157 0.88318497 0.88318497 0.88318497 1.1355236 1.5140314 -0.6308464 -0.5046771 1.0093542 -0.5046771 -0.5046771 1.0093542 -0.5046771 0.5046771 0.25233856
000080 dd 5e d8 ce d0 cc da ce cf dd cf d8 cd cd ce ca
       1.2616928 -14.761806 0.6308464 -0.6308464 -0.37850785 -0.88318497 0.88318497 -0.6308464 -0.5046771 1.2616928 -0.5046771 0.6308464 -0.7570157 -0.7570157 -0.6308464 -1.1355236
000090 dd ce dc de da da cf da de ce cf db cf dc ce e5
       1.2616928 -0.6308464 1.1355236 1.3878621 0.88318497 0.88318497 -0.5046771 0.88318497 1.3878621 -0.6308464 -0.5046771 1.0093542 -0.5046771 1.1355236 -0.6308464 2.271047
0000a0 d0 dc d9 d0 d0 d8 dc cf ce ce da ce cf cd db d1
       -0.37850785 1.1355236 0.7570157 -0.37850785 -0.37850785 0.6308464 1.1355236 -0.5046771 -0.6308464 -0.6308464 0.88318497 -0.6308464 -0.5046771 -0.7570157 1.0093542 -0.25233856
0000b0 eb d0 cf de ce cf d8 cf d0 ce cd da ce cc dd d9
       3.0280628 -0.37850785 -0.5046771 1.3878621 -0.6308464 -0.5046771 0.6308464 -0.5046771 -0.37850785 -0.6308464 -0.7570157 0.88318497 -0.6308464 -0.88318497 1.2616928 0.7570157
0000c0 d1 c7 de cd ce d7 e8 dd ce cf cf cf d8 cf cd dd
       -0.25233856 -1.5140314 1.3878621 -0.7570157 -0.6308464 0.5046771 2.649555 1.2616928 -0.6308464 -0.5046771 -0.5046771 -0.5046771 0.6308464 -0.5046771 -0.7570157 1.2616928
0000d0 dc db da e8 f3 d8 d8 d8 cf dc ce db cf d9 dd c2
       1.1355236 1.0093542 0.88318497 2.649555 4.037417 0.6308464 0.6308464 0.6308464 -0.5046771 1.1355236 -0.6308464 1.0093542 -0.5046771 0.7570157 1.2616928 -2.1448777
0000e0 d0 cf dc c5 d0 d9 da cf e8 d9 cf d9 db da cd d3
       -0.37850785 -0.5046771 1.1355236 -1.7663699 -0.37850785 0.7570157 0.88318497 -0.5046771 2.649555 0.7570157 -0.5046771 0.7570157 1.0093542 0.88318497 -0.7570157 0.0
0000f0 cf aa d9 ce da c1 d0 dd d9 d7 db cf cf cf d0 cf
       -0.5046771 -5.1729403 0.7570157 -0.6308464 0.88318497 -2.271047 -0.37850785 1.2616928 0.7570157 0.5046771 1.0093542 -0.5046771 -0.5046771 -0.5046771 -0.37850785 -0.5046771
