lib/mesa/src/gallium/targets/teflon/tests/mb-015.tflite (tflite, 7760 bytes, 1 tensors)

MobilenetV1/MobilenetV1/Conv2d_8_depthwise/weights_quant/FakeQuantWithMinMaxVars u1 [1, 3, 3, 512] scale=0.042609863 zero_point=94
0	0x63	0.21304932
1	0x60	0.085219726
2	0x5e	0.0
3	0x66	0.3408789
4	0x56	-0.3408789
5	0x5c	-0.085219726
6	0x5b	-0.12782958
7	0x64	0.25565916
8	0x4f	-0.63914794
9	0x61	0.12782958
10	0x76	1.0226367
11	0x58	-0.25565916
12	0x5c	-0.085219726
13	0x5d	-0.042609863
14	0x5d	-0.042609863
15	0x5f	0.042609863
16	0x60	0.085219726
17	0x56	-0.3408789
18	0x57	-0.29826903
19	0x57	-0.29826903
20	0x64	0.25565916
21	0x62	0.17043945
22	0x5d	-0.042609863
23	0x68	0.42609864
24	0x5b	-0.12782958
25	0x56	-0.3408789
26	0x65	0.29826903
27	0x5a	-0.17043945
28	0x6d	0.63914794
29	0x63	0.21304932
30	0x6d	0.63914794
31	0x64	0.25565916
32	0x5d	-0.042609863
33	0x57	-0.29826903
34	0x5a	-0.17043945
35	0x5f	0.042609863
36	0x63	0.21304932
37	0x59	-0.21304932
38	0x5e	0.0
39	0x5b	-0.12782958
40	0x60	0.085219726
41	0x4d	-0.7243677
42	0x63	0.21304932
43	0x58	-0.25565916
44	0x5f	0.042609863
45	0x5e	0.0
46	0x67	0.38348877
47	0x6c	0.59653807
48	0x5b	-0.12782958
49	0x64	0.25565916
50	0x61	0.12782958
51	0x5c	-0.085219726
52	0x66	0.3408789
53	0x6a	0.5113183
54	0x5a	-0.17043945
55	0x58	-0.25565916
56	0x60	0.085219726
57	0x57	-0.29826903
58	0x5d	-0.042609863
59	0x63	0.21304932
60	0x57	-0.29826903
61	0x60	0.085219726
62	0x55	-0.38348877
63	0x64	0.25565916
64	0x5a	-0.17043945
65	0x60	0.085219726
66	0x6a	0.5113183
67	0x5d	-0.042609863
68	0x68	0.42609864
69	0x61	0.12782958
70	0x5d	-0.042609863
71	0x5d	-0.042609863
72	0x56	-0.3408789
73	0x58	-0.25565916
74	0x5f	0.042609863
75	0x5d	-0.042609863
76	0x5a	-0.17043945
77	0x5c	-0.085219726
78	0x61	0.12782958
79	0x58	-0.25565916
80	0x5c	-0.085219726
81	0x4f	-0.63914794
82	0x64	0.25565916
83	0x5a	-0.17043945
84	0x5d	-0.042609863
85	0x61	0.12782958
86	0x65	0.29826903
87	0x63	0.21304932
88	0x60	0.085219726
89	0x64	0.25565916
90	0x5f	0.042609863
91	0x5b	-0.12782958
92	0x5a	-0.17043945
93	0x61	0.12782958
94	0x63	0.21304932
95	0x6b	0.5539282
96	0x59	-0.21304932
97	0x61	0.12782958
98	0x60	0.085219726
99	0x6c	0.59653807
100	0x5d	-0.042609863
101	0x60	0.085219726
102	0x5a	-0.17043945
103	0x5f	0.042609863
104	0x5d	-0.042609863
105	0x4e	-0.6817578
106	0x62	0.17043945
107	0x5a	-0.17043945
108	0x68	0.42609864
109	0x68	0.42609864
110	0x5d	-0.042609863
111	0x60	0.085219726
112	0x5f	0.042609863
113	0x4e	-0.6817578
114	0x65	0.29826903
115	0x5c	-0.085219726
116	0x61	0.12782958
117	0x5e	0.0
118	0x5c	-0.085219726
119	0x5b	-0.12782958
120	0x60	0.085219726
121	0x64	0.25565916
122	0x6f	0.7243677
123	0x5e	0.0
124	0x62	0.17043945
125	0x61	0.12782958
126	0x62	0.17043945
127	0x5a	-0.17043945
128	0x59	-0.21304932
129	0x60	0.085219726
130	0x5e	0.0
131	0x5d	-0.042609863
132	0x5a	-0.17043945
133	0x53	-0.4687085
134	0x66	0.3408789
135	0x58	-0.25565916
136	0x5d	-0.042609863
137	0x68	0.42609864
138	0x61	0.12782958
139	0x5d	-0.042609863
140	0x5c	-0.085219726
141	0x50	-0.59653807
142	0x5a	-0.17043945
143	0x63	0.21304932
144	0x5b	-0.12782958
145	0x5b	-0.12782958
146	0x72	0.8521973
147	0x5a	-0.17043945
148	0x5a	-0.17043945
149	0x60	0.085219726
150	0x64	0.25565916
151	0x73	0.8948071
152	0x5f	0.042609863
153	0x60	0.085219726
154	0x66	0.3408789
155	0x62	0.17043945
156	0x5f	0.042609863
157	0x61	0.12782958
158	0x65	0.29826903
159	0x63	0.21304932
160	0x53	-0.4687085
161	0x59	-0.21304932
162	0x66	0.3408789
163	0x62	0.17043945
164	0x61	0.12782958
165	0x55	-0.38348877
166	0x5d	-0.042609863
167	0x6d	0.63914794
168	0x5e	0.0
169	0x5d	-0.042609863
170	0x5f	0.042609863
171	0x62	0.17043945
172	0x60	0.085219726
173	0x5f	0.042609863
174	0x5f	0.042609863
175	0x5a	-0.17043945
176	0x5d	-0.042609863
177	0x64	0.25565916
178	0x54	-0.42609864
179	0x60	0.085219726
180	0x63	0.21304932
181	0x60	0.085219726
182	0x80	1.4487354
183	0x60	0.085219726
184	0x5c	-0.085219726
185	0x5d	-0.042609863
186	0x63	0.21304932
187	0x65	0.29826903
188	0x60	0.085219726
189	0x5b	-0.12782958
190	0x5f	0.042609863
191	0x62	0.17043945
192	0x6c	0.59653807
193	0x68	0.42609864
194	0x5b	-0.12782958
195	0x5d	-0.042609863
196	0x59	-0.21304932
197	0x60	0.085219726
198	0x61	0.12782958
199	0x5a	-0.17043945
200	0x5f	0.042609863
201	0x62	0.17043945
202	0x61	0.12782958
203	0x53	-0.4687085
204	0x66	0.3408789
205	0x60	0.085219726
206	0x62	0.17043945
207	0x4d	-0.7243677
208	0x64	0.25565916
209	0x60	0.085219726
210	0x58	-0.25565916
211	0x5e	0.0
212	0x5a	-0.17043945
213	0x5c	-0.085219726
214	0x5d	-0.042609863
215	0x63	0.21304932
216	0x62	0.17043945
217	0x51	-0.5539282
218	0x5e	0.0
219	0x64	0.25565916
220	0x5f	0.042609863
221	0x63	0.21304932
222	0x5f	0.042609863
223	0x5f	0.042609863
224	0x61	0.12782958
225	0x5c	-0.085219726
226	0x59	-0.21304932
227	0x5f	0.042609863
228	0x58	-0.25565916
229	0x71	0.8095874
230	0x60	0.085219726
231	0x63	0.21304932
232	0x61	0.12782958
233	0x5e	0.0
234	0x67	0.38348877
235	0x63	0.21304932
236	0x5c	-0.085219726
237	0x5f	0.042609863
238	0x58	-0.25565916
239	0x5f	0.042609863
240	0x60	0.085219726
241	0x5b	-0.12782958
242	0x5d	-0.042609863
243	0x64	0.25565916
244	0x60	0.085219726
245	0x5c	-0.085219726
246	0x5f	0.042609863
247	0x61	0.12782958
248	0x6f	0.7243677
249	0x64	0.25565916
250	0x5f	0.042609863
251	0x5e	0.0
252	0x5c	-0.085219726
253	0x64	0.25565916
254	0x58	-0.25565916
255	0x58	-0.25565916
