lib/mesa/src/gallium/targets/teflon/tests/mb-008.tflite (tflite, 34880 bytes, 1 tensors)

MobilenetV1/MobilenetV1/Conv2d_4_pointwise/weights_quant/FakeQuantWithMinMaxVars u1 [256, 1, 1, 128] scale=0.007601847 zero_point=151
000000 92 75 9f 97 96 b6 93 9a 98 9e 97 9f 97 99 96 9b
       -0.038009234 -0.2584628 0.060814776 0.0 -0.007601847 0.23565726 -0.030407388 0.022805542 0.007601847 0.05321293 0.0 0.060814776 0.0 0.015203694 -0.007601847 0.030407388
000010 9a 98 97 9f e6 98 94 98 95 96 9a 98 98 9f 8e 96
       0.022805542 0.007601847 0.0 0.060814776 0.6005459 0.007601847 -0.022805542 0.007601847 -0.015203694 -0.007601847 0.022805542 0.007601847 0.007601847 0.060814776 -0.068416625 -0.007601847
000020 98 97 96 80 98 99 97 96 98 96 95 95 92 99 96 97
       0.007601847 0.0 -0.007601847 -0.17484248 0.007601847 0.015203694 0.0 -0.007601847 0.007601847 -0.007601847 -0.015203694 -0.015203694 -0.038009234 0.015203694 -0.007601847 0.0
000030 9a 92 95 99 98 99 a2 9c c1 9d 93 95 97 97 93 97
       0.022805542 -0.038009234 -0.015203694 0.015203694 0.007601847 0.015203694 0.08362032 0.038009234 0.31927758 0.045611084 -0.030407388 -0.015203694 0.0 0.0 -0.030407388 0.0
000040 95 95 95 97 98 93 96 95 98 97 94 9d 8c 98 9b 97
       -0.015203694 -0.015203694 -0.015203694 0.0 0.007601847 -0.030407388 -0.007601847 -0.015203694 0.007601847 0.0 -0.022805542 0.045611084 -0.08362032 0.007601847 0.030407388 0.0
000050 94 b2 98 8c 98 96 96 95 98 95 94 97 98 94 98 9a
       -0.022805542 0.20524986 0.007601847 -0.08362032 0.007601847 -0.007601847 -0.007601847 -0.015203694 0.007601847 -0.015203694 -0.022805542 0.0 0.007601847 -0.022805542 0.007601847 0.022805542
000060 9a 98 90 93 9a 9c 9a 9a 91 99 96 97 9c 9a 9b 97
       0.022805542 0.007601847 -0.05321293 -0.030407388 0.022805542 0.038009234 0.022805542 0.022805542 -0.045611084 0.015203694 -0.007601847 0.0 0.038009234 0.022805542 0.030407388 0.0
000070 95 9f a2 a1 97 95 93 96 96 9d 8f 94 98 97 9a 98
       -0.015203694 0.060814776 0.08362032 0.07601847 0.0 -0.015203694 -0.030407388 -0.007601847 -0.007601847 0.045611084 -0.060814776 -0.022805542 0.007601847 0.0 0.022805542 0.007601847
000080 94 9b 95 96 99 87 99 98 99 8a 96 98 97 98 97 90
       -0.022805542 0.030407388 -0.015203694 -0.007601847 0.015203694 -0.12162955 0.015203694 0.007601847 0.015203694 -0.09882401 -0.007601847 0.007601847 0.0 0.007601847 0.0 -0.05321293
000090 99 99 98 96 88 99 96 98 97 99 96 95 99 96 9a 97
       0.015203694 0.015203694 0.007601847 -0.007601847 -0.1140277 0.015203694 -0.007601847 0.007601847 0.0 0.015203694 -0.007601847 -0.015203694 0.015203694 -0.007601847 0.022805542 0.0
0000a0 97 96 98 99 96 9a 99 98 96 98 98 9b 96 98 99 96
       0.0 -0.007601847 0.007601847 0.015203694 -0.007601847 0.022805542 0.015203694 0.007601847 -0.007601847 0.007601847 0.007601847 0.030407388 -0.007601847 0.007601847 0.015203694 -0.007601847
0000b0 98 95 98 97 98 96 98 96 97 97 90 97 95 97 98 98
       0.007601847 -0.015203694 0.007601847 0.0 0.007601847 -0.007601847 0.007601847 -0.007601847 0.0 0.0 -0.05321293 0.0 -0.015203694 0.0 0.007601847 0.007601847
0000c0 97 91 9c 97 98 93 97 98 95 96 96 96 99 98 98 96
       0.0 -0.045611084 0.038009234 0.0 0.007601847 -0.030407388 0.0 0.007601847 -0.015203694 -0.007601847 -0.007601847 -0.007601847 0.015203694 0.007601847 0.007601847 -0.007601847
0000d0 96 8b 95 97 9f 98 96 98 96 93 99 97 98 a7 97 97
       -0.007601847 -0.09122217 -0.015203694 0.0 0.060814776 0.007601847 -0.007601847 0.007601847 -0.007601847 -0.030407388 0.015203694 0.0 0.007601847 0.12162955 0.0 0.0
0000e0 95 96 95 94 97 98 95 99 96 96 96 97 94 99 98 9a
       -0.015203694 -0.007601847 -0.015203694 -0.022805542 0.0 0.007601847 -0.015203694 0.015203694 -0.007601847 -0.007601847 -0.007601847 0.0 -0.022805542 0.015203694 0.007601847 0.022805542
0000f0 9a 94 99 9d 98 97 94 97 98 9a aa 96 97 98 9a 99
       0.022805542 -0.022805542 0.015203694 0.045611084 0.007601847 0.0 -0.022805542 0.0 0.007601847 0.022805542 0.1444351 -0.007601847 0.0 0.007601847 0.022805542 0.015203694
