lib/mesa/src/gallium/targets/teflon/tests/mobiledet-048.tflite (tflite, 75296 bytes, 1 tensors)

FeatureExtractor/MobileDetEdgeTPU/IBN_4/Conv_1/weights_quant/FakeQuantWithMinMaxVars u1 [96, 1, 1, 768] scale=0.02693923 zero_point=140
000000 8d 7f 8b 8a 87 96 84 6d 84 82 8c 9b 7a 9a 8d 7f
       0.02693923 -0.35020998 -0.02693923 -0.05387846 -0.13469616 0.2693923 -0.21551384 -0.83511615 -0.21551384 -0.2693923 0.0 0.40408844 -0.48490614 0.37714922 0.02693923 -0.35020998
000010 7e 91 7d 93 83 8d 78 79 82 83 87 79 93 9e 9e 95
       -0.37714922 0.13469616 -0.40408844 0.18857461 -0.24245307 0.02693923 -0.5387846 -0.51184535 -0.2693923 -0.24245307 -0.13469616 -0.51184535 0.18857461 0.48490614 0.48490614 0.24245307
000020 9c 88 84 88 82 75 83 8b 8d 86 8b 83 95 7a 92 84
       0.43102768 -0.10775692 -0.21551384 -0.10775692 -0.2693923 -0.61960226 -0.24245307 -0.02693923 0.02693923 -0.16163538 -0.02693923 -0.24245307 0.24245307 -0.48490614 0.16163538 -0.21551384
000030 7d 7f 8e 97 97 84 96 81 74 8e 8d 9e 9c 91 94 8e
       -0.40408844 -0.35020998 0.05387846 0.29633152 0.29633152 -0.21551384 0.2693923 -0.29633152 -0.64654154 0.05387846 0.02693923 0.48490614 0.43102768 0.13469616 0.21551384 0.05387846
000040 97 8b 87 70 7a 87 85 9a 8b 6a 7e 74 9a 6a 75 8f
       0.29633152 -0.02693923 -0.13469616 -0.75429845 -0.48490614 -0.13469616 -0.18857461 0.37714922 -0.02693923 -0.91593385 -0.37714922 -0.64654154 0.37714922 -0.91593385 -0.61960226 0.08081769
000050 83 a1 a8 92 7f a2 8e 8b 74 8a 79 89 7f 73 9d 8b
       -0.24245307 0.56572384 0.75429845 0.16163538 -0.35020998 0.59266305 0.05387846 -0.02693923 -0.64654154 -0.05387846 -0.51184535 -0.08081769 -0.35020998 -0.67348075 0.45796692 -0.02693923
000060 76 85 7d 82 78 8e 81 7f 78 8f 85 76 a1 99 82 73
       -0.59266305 -0.18857461 -0.40408844 -0.2693923 -0.5387846 0.05387846 -0.29633152 -0.35020998 -0.5387846 0.08081769 -0.18857461 -0.59266305 0.56572384 0.35020998 -0.2693923 -0.67348075
000070 79 9e 84 86 7a 95 8c 6c 7e 87 86 92 81 9b 74 8f
       -0.51184535 0.48490614 -0.21551384 -0.16163538 -0.48490614 0.24245307 0.0 -0.86205536 -0.37714922 -0.13469616 -0.16163538 0.16163538 -0.29633152 0.40408844 -0.64654154 0.08081769
000080 a1 8b 87 99 8b 91 88 8c 86 6d 8b 84 97 9d 89 7d
       0.56572384 -0.02693923 -0.13469616 0.35020998 -0.02693923 0.13469616 -0.10775692 0.0 -0.16163538 -0.83511615 -0.02693923 -0.21551384 0.29633152 0.45796692 -0.08081769 -0.40408844
000090 90 8b 8f 78 92 87 95 94 6d 82 a2 80 6e 9f 81 87
       0.10775692 -0.02693923 0.08081769 -0.5387846 0.16163538 -0.13469616 0.24245307 0.21551384 -0.83511615 -0.2693923 0.59266305 -0.32327077 -0.8081769 0.51184535 -0.29633152 -0.13469616
0000a0 93 7d 8d 86 81 71 7f 71 98 7d 74 91 92 90 a0 8a
       0.18857461 -0.40408844 0.02693923 -0.16163538 -0.29633152 -0.72735924 -0.35020998 -0.72735924 0.32327077 -0.40408844 -0.64654154 0.13469616 0.16163538 0.10775692 0.5387846 -0.05387846
0000b0 82 80 7a af 81 8b 74 a3 92 72 86 8d 93 99 6d 81
       -0.2693923 -0.32327077 -0.48490614 0.94287306 -0.29633152 -0.02693923 -0.64654154 0.61960226 0.16163538 -0.70041996 -0.16163538 0.02693923 0.18857461 0.35020998 -0.83511615 -0.29633152
0000c0 95 97 94 88 8e 97 83 91 80 8a 7f 79 7c 97 8b 9f
       0.24245307 0.29633152 0.21551384 -0.10775692 0.05387846 0.29633152 -0.24245307 0.13469616 -0.32327077 -0.05387846 -0.35020998 -0.51184535 -0.43102768 0.29633152 -0.02693923 0.51184535
0000d0 7c 87 82 74 90 6e 91 90 77 7d 7f 9b 7e 9d 73 9d
       -0.43102768 -0.13469616 -0.2693923 -0.64654154 0.10775692 -0.8081769 0.13469616 0.10775692 -0.56572384 -0.40408844 -0.35020998 0.40408844 -0.37714922 0.45796692 -0.67348075 0.45796692
0000e0 8d 78 81 88 8d 7f 80 62 7b 85 92 82 77 83 8a 6f
       0.02693923 -0.5387846 -0.29633152 -0.10775692 0.02693923 -0.35020998 -0.32327077 -1.1314477 -0.45796692 -0.18857461 0.16163538 -0.2693923 -0.56572384 -0.24245307 -0.05387846 -0.78123766
0000f0 8e 81 81 a9 81 93 80 8e 88 7d 6a 8d 87 8d 8f 9b
       0.05387846 -0.29633152 -0.29633152 0.78123766 -0.29633152 0.18857461 -0.32327077 0.05387846 -0.10775692 -0.40408844 -0.91593385 0.02693923 -0.13469616 0.02693923 0.08081769 0.40408844
