lib/mesa/src/gallium/targets/teflon/tests/mobiledet-087.tflite (tflite, 6160 bytes, 1 tensors)

BoxPredictor_1/ClassPredictor_depthwise/weights_quant/FakeQuantWithMinMaxVars u1 [1, 3, 3, 384] scale=0.020766918 zero_point=140
000000 a2 89 98 8e 89 86 94 8e 85 89 83 81 87 86 89 8c
       0.4568722 -0.062300753 0.24920301 0.041533835 -0.062300753 -0.124601506 0.16613534 0.041533835 -0.14536843 -0.062300753 -0.18690225 -0.2284361 -0.103834584 -0.124601506 -0.062300753 0.0
000010 89 95 89 88 80 a6 8e 8c 94 93 8c 93 91 7b 81 94
       -0.062300753 0.18690225 -0.062300753 -0.08306767 -0.24920301 0.5399399 0.041533835 0.0 0.16613534 0.14536843 0.0 0.14536843 0.103834584 -0.3530376 -0.2284361 0.16613534
000020 8c 8d 81 86 82 85 87 84 93 7b 81 9d 83 8b 87 80
       0.0 0.020766918 -0.2284361 -0.124601506 -0.20766917 -0.14536843 -0.103834584 -0.16613534 0.14536843 -0.3530376 -0.2284361 0.3530376 -0.18690225 -0.020766918 -0.103834584 -0.24920301
000030 83 9c 9b 8c 83 91 94 78 a4 8e ad 86 82 93 80 7e
       -0.18690225 0.33227068 0.31150377 0.0 -0.18690225 0.103834584 0.16613534 -0.41533834 0.49840602 0.041533835 0.6853083 -0.124601506 -0.20766917 0.14536843 -0.24920301 -0.29073685
000040 8a 9b 82 83 9a 93 8d 86 8a 8c 8e 8f 7e 86 81 92
       -0.041533835 0.31150377 -0.20766917 -0.18690225 0.29073685 0.14536843 0.020766918 -0.124601506 -0.041533835 0.0 0.041533835 0.062300753 -0.29073685 -0.124601506 -0.2284361 0.124601506
000050 89 8c 8d 84 9d 86 96 85 98 83 8f 91 8b 84 8c 8b
       -0.062300753 0.0 0.020766918 -0.16613534 0.3530376 -0.124601506 0.20766917 -0.14536843 0.24920301 -0.18690225 0.062300753 0.103834584 -0.020766918 -0.16613534 0.0 -0.020766918
000060 82 86 90 99 88 82 8e 95 7b 94 8a 91 8c 93 8d 8e
       -0.20766917 -0.124601506 0.08306767 0.26996994 -0.08306767 -0.20766917 0.041533835 0.18690225 -0.3530376 0.16613534 -0.041533835 0.103834584 0.0 0.14536843 0.020766918 0.041533835
000070 92 96 97 7f 91 87 99 96 88 97 96 88 8e 9a 8e 94
       0.124601506 0.20766917 0.2284361 -0.26996994 0.103834584 -0.103834584 0.26996994 0.20766917 -0.08306767 0.2284361 0.20766917 -0.08306767 0.041533835 0.29073685 0.041533835 0.16613534
000080 8e 87 8d 80 8c 8f 99 ac 8e 99 87 96 91 7f 91 94
       0.041533835 -0.103834584 0.020766918 -0.24920301 0.0 0.062300753 0.26996994 0.66454136 0.041533835 0.26996994 -0.103834584 0.20766917 0.103834584 -0.26996994 0.103834584 0.16613534
000090 91 87 80 81 8c 8e 97 93 81 8c 87 8a 8c 86 8e 8a
       0.103834584 -0.103834584 -0.24920301 -0.2284361 0.0 0.041533835 0.2284361 0.14536843 -0.2284361 0.0 -0.103834584 -0.041533835 0.0 -0.124601506 0.041533835 -0.041533835
0000a0 8c 81 8b 8a 6e 86 98 91 8c 8c 93 96 81 91 97 99
       0.0 -0.2284361 -0.020766918 -0.041533835 -0.62300754 -0.124601506 0.24920301 0.103834584 0.0 0.0 0.14536843 0.20766917 -0.2284361 0.103834584 0.2284361 0.26996994
0000b0 91 8c 92 8f 81 83 9a 9e 84 8b 8e 95 92 82 9e 9a
       0.103834584 0.0 0.124601506 0.062300753 -0.2284361 -0.18690225 0.29073685 0.3738045 -0.16613534 -0.020766918 0.041533835 0.18690225 0.124601506 -0.20766917 0.3738045 0.29073685
0000c0 8f 8f 86 7e 99 97 8d a2 84 95 77 78 89 8e 8a 8c
       0.062300753 0.062300753 -0.124601506 -0.29073685 0.26996994 0.2284361 0.020766918 0.4568722 -0.16613534 0.18690225 -0.43610528 -0.41533834 -0.062300753 0.041533835 -0.041533835 0.0
0000d0 85 8a 84 92 79 8f 85 8c 94 8e a6 75 92 8d 87 94
       -0.14536843 -0.041533835 -0.16613534 0.124601506 -0.39457142 0.062300753 -0.14536843 0.0 0.16613534 0.041533835 0.5399399 -0.4776391 0.124601506 0.020766918 -0.103834584 0.16613534
0000e0 86 8d 82 8f 81 96 8f 8c 93 97 8a 93 8f 8d 84 8c
       -0.124601506 0.020766918 -0.20766917 0.062300753 -0.2284361 0.20766917 0.062300753 0.0 0.14536843 0.2284361 -0.041533835 0.14536843 0.062300753 0.020766918 -0.16613534 0.0
0000f0 77 8d 83 8b 8d 96 9e 94 8d 87 95 8f 98 87 93 90
       -0.43610528 0.020766918 -0.18690225 -0.020766918 0.020766918 0.20766917 0.3738045 0.16613534 0.020766918 -0.103834584 0.18690225 0.062300753 0.24920301 -0.103834584 0.14536843 0.08306767
