lib/mesa/src/gallium/targets/teflon/tests/mobiledet-010.tflite (tflite, 3328 bytes, 1 tensors)

FeatureExtractor/MobileDetEdgeTPU/FusedConv_2/Conv_1/weights_quant/FakeQuantWithMinMaxVars u1 [16, 1, 1, 128] scale=0.019873885 zero_point=136
-0.59621656 -0.059621654 0.37760383 0.15899108 0.23848662 -0.059621654 -0.33785605 0.47697324
-0.07949554 -1.3712981 0.1391172 0.059621654 0.059621654 -0.23848662 -0.019873885 0.19873886
0.23848662 0.11924331 0.31798217 0.2583605 -0.45709938 0.07949554 -0.33785605 0.2583605
-0.516721 -0.4173516 0.5564688 0.39747772 -0.5763427 0.49684712 -0.8347032 -0.73533374
-0.35772994 0.4173516 -0.73533374 -0.69558597 -0.874451 -0.6757121 0.4173516 0.516721
0.6160905 -0.6558382 0.2782344 -0.17886497 0.2583605 0.5365949 0.6558382 -0.019873885
-0.019873885 -0.4173516 -0.45709938 -0.059621654 -0.4173516 0.03974777 0.19873886 0.17886497
0.6558382 -0.75520766 0.35772994 -0.37760383 -0.7750815 0.23848662 1.3514242 -0.2782344
0.5763427 0.059621654 0.0 -0.9340726 0.49684712 0.059621654 0.11924331 0.059621654
-0.37760383 0.21861275 0.2782344 -0.019873885 0.73533374 0.6558382 0.0 -0.39747772
0.019873885 0.0 0.6558382 0.0 -0.07949554 0.6757121 0.0 0.73533374
0.6757121 0.5365949 -0.03974777 0.15899108 0.1391172 -0.15899108 -0.5564688 -0.059621654
0.33785605 0.516721 -0.31798217 -0.07949554 0.2782344 0.79495543 -0.2583605 0.874451
-0.91419876 0.15899108 -0.17886497 0.09936943 0.1391172 -0.8347032 -1.1328114 -0.49684712
0.03974777 0.31798217 0.6558382 -0.5564688 -0.33785605 0.17886497 0.019873885 0.33785605
0.37760383 0.059621654 -0.874451 0.019873885 -0.17886497 -0.99369425 0.059621654 0.49684712
-0.15899108 0.59621656 -0.4173516 0.1391172 0.516721 -0.6160905 -0.4173516 -0.1391172
-0.09936943 -0.15899108 -0.31798217 1.033442 0.35772994 0.31798217 0.5564688 -0.516721
-0.47697324 0.11924331 -0.4372255 0.37760383 -0.09936943 0.4173516 0.4173516 -0.07949554
-0.75520766 -0.1391172 -0.79495543 0.33785605 0.07949554 0.7154599 0.63596433 -0.29810828
-0.33785605 -0.6558382 0.19873886 -0.29810828 0.49684712 0.63596433 -0.03974777 -0.4173516
-0.07949554 0.37760383 0.09936943 0.15899108 0.0 -0.39747772 -0.35772994 0.23848662
-0.5564688 0.03974777 0.39747772 0.2583605 -0.4173516 -0.09936943 0.09936943 0.1391172
0.21861275 -0.17886497 0.35772994 -0.35772994 0.33785605 0.31798217 0.019873885 0.5763427
-0.4372255 0.31798217 0.19873886 -0.23848662 -0.15899108 -0.059621654 0.29810828 0.03974777
0.29810828 0.09936943 0.07949554 -0.07949554 -0.5365949 -0.49684712 -0.35772994 1.0533159
-0.45709938 -0.47697324 0.31798217 0.45709938 0.4372255 -0.6160905 0.2583605 0.19873886
-0.33785605 -0.5564688 0.2583605 -0.23848662 -0.1391172 -0.07949554 0.07949554 0.1391172
-0.4372255 0.23848662 -0.4372255 0.73533374 0.37760383 -0.39747772 0.35772994 0.2583605
0.7154599 -0.5365949 -0.03974777 -0.23848662 0.17886497 0.35772994 0.07949554 0.07949554
-0.516721 -0.4372255 0.49684712 0.059621654 0.29810828 0.019873885 -0.69558597 0.2583605
-0.2782344 0.5564688 -0.4372255 -0.21861275 -0.2782344 -0.5763427 0.2583605 0.33785605
00000000: 6a85 9b90 9485 77a0 8443 8f8b 8b7c 8792
00000010: 948e 9895 718c 7795 6e73 a49c 6ba1 5e63
00000020: 769d 6365 5c66 9da2 a767 967f 95a3 a987
00000030: 8773 7185 738a 9291 a962 9a75 6194 cc7a
00000040: a58b 8859 a18b 8e8b 7593 9687 ada9 8874
00000050: 8988 a988 84aa 88ad aaa3 8690 8f80 6c85
00000060: 99a2 7884 96b0 7bb4 5a90 7f8d 8f5e 4f6f
00000070: 8a98 a96c 7791 8999 9b8b 5c89 7f56 8ba1
00000080: 80a6 738f a269 7381 8380 78bc 9a98 a46e
00000090: 708e 729b 839d 9d84 6281 6099 8cac a879
000000a0: 7767 9279 a1a8 8673 849b 8d90 8874 7694
000000b0: 6c8a 9c95 7383 8d8f 937f 9a76 9998 89a5
000000c0: 7298 927c 8085 978a 978d 8c84 6d6f 76bd
000000d0: 7170 989f 9e69 9592 776c 957c 8184 8c8f
000000e0: 7294 72ad 9b74 9a95 ac6d 867c 919a 8c8c
000000f0: 6e72 a18b 9789 6595 7aa4 727d 7a6b 9599
