lib/mesa/src/gallium/targets/teflon/tests/mobiledet-046.tflite (tflite, 77968 bytes, 1 tensors)

FeatureExtractor/MobileDetEdgeTPU/IBN_4/Conv/weights_quant/FakeQuantWithMinMaxVars u1 [768, 1, 1, 96] scale=0.0043338886 zero_point=164
000000 9c b5 ae cd 98 af a7 9f 96 a1 9f a6 a8 a6 a3 ab
       -0.03467111 0.07367611 0.043338887 0.17768943 -0.052006662 0.047672775 0.0130016655 -0.021669444 -0.06067444 -0.0130016655 -0.021669444 0.008667777 0.017335555 0.008667777 -0.0043338886 0.03033722
000010 9c 9f b0 a0 9e 9d a4 91 a4 a1 b0 9a a3 97 9d 9a
       -0.03467111 -0.021669444 0.052006662 -0.017335555 -0.026003331 -0.03033722 0.0 -0.082343884 0.0 -0.0130016655 0.052006662 -0.043338887 -0.0043338886 -0.056340553 -0.03033722 -0.043338887
000020 a7 98 9b 97 a6 b0 a7 9a a8 a3 a2 a1 a7 9d a1 a9
       0.0130016655 -0.052006662 -0.039004996 -0.056340553 0.008667777 0.052006662 0.0130016655 -0.043338887 0.017335555 -0.0043338886 -0.008667777 -0.0130016655 0.0130016655 -0.03033722 -0.0130016655 0.021669444
000030 ab aa a6 a4 b0 9b a3 9a a8 a9 af a6 a8 99 9d a2
       0.03033722 0.026003331 0.008667777 0.0 0.052006662 -0.039004996 -0.0043338886 -0.043338887 0.017335555 0.021669444 0.047672775 0.008667777 0.017335555 -0.047672775 -0.03033722 -0.008667777
000040 ab 98 a8 aa 96 99 ab 8b bc a5 90 9e aa bd aa a6
       0.03033722 -0.052006662 0.017335555 0.026003331 -0.06067444 -0.047672775 0.03033722 -0.108347215 0.104013324 0.0043338886 -0.086677775 -0.026003331 0.026003331 0.108347215 0.026003331 0.008667777
000050 9d 98 92 a2 a9 99 96 9e a6 af a2 a2 b5 a1 ad a7
       -0.03033722 -0.052006662 -0.07800999 -0.008667777 0.021669444 -0.047672775 -0.06067444 -0.026003331 0.008667777 0.047672775 -0.008667777 -0.008667777 0.07367611 -0.0130016655 0.039004996 0.0130016655
000060 ae a0 a4 a2 9b a4 a2 9f a1 9c 98 a3 a8 a4 a4 a7
       0.043338887 -0.017335555 0.0 -0.008667777 -0.039004996 0.0 -0.008667777 -0.021669444 -0.0130016655 -0.03467111 -0.052006662 -0.0043338886 0.017335555 0.0 0.0 0.0130016655
000070 aa a9 9f a5 9c a6 a0 a4 9e b5 a2 a4 a9 a2 a1 ab
       0.026003331 0.021669444 -0.021669444 0.0043338886 -0.03467111 0.008667777 -0.017335555 0.0 -0.026003331 0.07367611 -0.008667777 0.0 0.021669444 -0.008667777 -0.0130016655 0.03033722
000080 a2 99 a3 ab a9 a2 9e b3 ab a7 aa a4 96 a4 9f a8
       -0.008667777 -0.047672775 -0.0043338886 0.03033722 0.021669444 -0.008667777 -0.026003331 0.06500833 0.03033722 0.0130016655 0.026003331 0.0 -0.06067444 0.0 -0.021669444 0.017335555
000090 9e a1 ad a2 a8 ab a7 aa a4 9e ae 9a a1 a2 a5 94
       -0.026003331 -0.0130016655 0.039004996 -0.008667777 0.017335555 0.03033722 0.0130016655 0.026003331 0.0 -0.026003331 0.043338887 -0.043338887 -0.0130016655 -0.008667777 0.0043338886 -0.06934222
0000a0 97 a7 94 a0 99 a2 a2 a9 9f b6 a8 a8 9d a4 a3 9e
       -0.056340553 0.0130016655 -0.06934222 -0.017335555 -0.047672775 -0.008667777 -0.008667777 0.021669444 -0.021669444 0.07800999 0.017335555 0.017335555 -0.03033722 0.0 -0.0043338886 -0.026003331
0000b0 a4 a0 ad b4 9d ad a6 a2 a4 9c af 96 a2 9f a5 a5
       0.0 -0.017335555 0.039004996 0.06934222 -0.03033722 0.039004996 0.008667777 -0.008667777 0.0 -0.03467111 0.047672775 -0.06067444 -0.008667777 -0.021669444 0.0043338886 0.0043338886
0000c0 a9 aa a8 b4 9b a2 aa 9f 95 a1 a3 a6 9d b5 9f ac
       0.021669444 0.026003331 0.017335555 0.06934222 -0.039004996 -0.008667777 0.026003331 -0.021669444 -0.06500833 -0.0130016655 -0.0043338886 0.008667777 -0.03033722 0.07367611 -0.021669444 0.03467111
0000d0 ab a6 a2 a6 ae a0 9a a7 a6 a8 9e 9e ad a6 99 aa
       0.03033722 0.008667777 -0.008667777 0.008667777 0.043338887 -0.017335555 -0.043338887 0.0130016655 0.008667777 0.017335555 -0.026003331 -0.026003331 0.039004996 0.008667777 -0.047672775 0.026003331
0000e0 a4 a5 9c a6 a5 a0 a0 a2 a3 a7 a2 ae a8 9f 9e 9e
       0.0 0.0043338886 -0.03467111 0.008667777 0.0043338886 -0.017335555 -0.017335555 -0.008667777 -0.0043338886 0.0130016655 -0.008667777 0.043338887 0.017335555 -0.021669444 -0.026003331 -0.026003331
0000f0 aa a4 aa a2 9c a4 90 a5 99 a5 ac a4 a1 a4 aa a9
       0.026003331 0.0 0.026003331 -0.008667777 -0.03467111 0.0 -0.086677775 0.0043338886 -0.047672775 0.0043338886 0.03467111 0.0 -0.0130016655 0.0 0.026003331 0.021669444
