lib/mesa/src/gallium/targets/teflon/tests/mobiledet-003.tflite (tflite, 1536 bytes, 1 tensors)

FeatureExtractor/MobileDetEdgeTPU/TuckerConv/Conv_2/weights_quant/FakeQuantWithMinMaxVars u1 [16, 1, 1, 16] scale=0.028541317 zero_point=126
0	0x37	-2.0264335
1	0x34	-2.1120574
2	0x5c	-0.9704048
3	0x86	0.22833054
4	0x68	-0.627909
5	0x7b	-0.08562395
6	0x6b	-0.542285
7	0x7e	0.0
8	0x50	-1.3129005
9	0x76	-0.22833054
10	0xca	2.16914
11	0x7d	-0.028541317
12	0x89	0.3139545
13	0x6a	-0.57082635
14	0x87	0.25687185
15	0x65	-0.7135329
16	0x95	0.6564503
17	0x69	-0.5993677
18	0x74	-0.28541318
19	0xab	1.2843592
20	0x69	-0.5993677
21	0x8e	0.45666108
22	0x42	-1.712479
23	0xa4	1.08457
24	0x52	-1.255818
25	0x98	0.74207425
26	0x67	-0.6564503
27	0x72	-0.3424958
28	0x9e	0.91332215
29	0x72	-0.3424958
30	0x6d	-0.4852024
31	0x69	-0.5993677
32	0x81	0.08562395
33	0x8e	0.45666108
34	0x7e	0.0
35	0x46	-1.5983138
36	0x84	0.1712479
37	0x63	-0.7706156
38	0x2d	-2.3118467
39	0x78	-0.1712479
40	0x87	0.25687185
41	0x65	-0.7135329
42	0x93	0.5993677
43	0x84	0.1712479
44	0x85	0.19978923
45	0x8b	0.37103713
46	0x93	0.5993677
47	0x69	-0.5993677
48	0x7a	-0.11416527
49	0x64	-0.74207425
50	0x7f	0.028541317
51	0x61	-0.8276982
52	0x86	0.22833054
53	0x7f	0.028541317
54	0x84	0.1712479
55	0x72	-0.3424958
56	0x7c	-0.057082634
57	0x9c	0.8562395
58	0x57	-1.1131114
59	0x83	0.14270659
60	0x82	0.11416527
61	0x6f	-0.42811975
62	0x6e	-0.45666108
63	0x7d	-0.028541317
64	0x2a	-2.3974707
65	0xac	1.3129005
66	0x70	-0.39957845
67	0x44	-1.6553963
68	0x9c	0.8562395
69	0xd3	2.426012
70	0x60	-0.8562395
71	0x8e	0.45666108
72	0xa2	1.0274874
73	0x74	-0.28541318
74	0x40	-1.7695616
75	0x89	0.3139545
76	0x8a	0.3424958
77	0x91	0.542285
78	0x8c	0.39957845
79	0x71	-0.37103713
80	0x56	-1.1416527
81	0xc3	1.9693509
82	0x7a	-0.11416527
83	0xbd	1.798103
84	0x78	-0.1712479
85	0x5f	-0.8847808
86	0x45	-1.6268551
87	0x68	-0.627909
88	0x94	0.627909
89	0x8a	0.3424958
90	0x04	-3.4820406
91	0x70	-0.39957845
92	0x80	0.057082634
93	0x70	-0.39957845
94	0x7c	-0.057082634
95	0x7e	0.0
96	0x9a	0.7991569
97	0x28	-2.4545534
98	0xcb	2.1976814
99	0xc9	2.1405988
100	0xb1	1.4556072
101	0x6f	-0.42811975
102	0xa9	1.2272767
103	0x79	-0.14270659
104	0x76	-0.22833054
105	0x83	0.14270659
106	0xad	1.3414419
107	0x54	-1.1987354
108	0x8d	0.42811975
109	0x89	0.3139545
110	0xad	1.3414419
111	0x67	-0.6564503
112	0x93	0.5993677
113	0x50	-1.3129005
114	0x7b	-0.08562395
115	0x71	-0.37103713
116	0x6f	-0.42811975
117	0x6d	-0.4852024
118	0x8c	0.39957845
119	0x80	0.057082634
120	0xca	2.16914
121	0x7b	-0.08562395
122	0x58	-1.08457
123	0x87	0.25687185
124	0x9a	0.7991569
125	0x80	0.057082634
126	0x7a	-0.11416527
127	0x6d	-0.4852024
128	0x78	-0.1712479
129	0x73	-0.3139545
130	0xdb	2.6543424
131	0x6e	-0.45666108
132	0x01	-3.5676646
133	0x84	0.1712479
134	0x53	-1.2272767
135	0x89	0.3139545
136	0x7f	0.028541317
137	0x87	0.25687185
138	0x6e	-0.45666108
139	0x8d	0.42811975
140	0xae	1.3699832
141	0x19	-2.882673
142	0xff	3.68183
143	0xa3	1.0560287
144	0x6f	-0.42811975
145	0x60	-0.8562395
146	0xfc	3.596206
147	0x62	-0.7991569
148	0xd9	2.5972598
149	0x3a	-1.9408096
150	0x48	-1.5412312
151	0x8d	0.42811975
152	0x87	0.25687185
153	0x70	-0.39957845
154	0xa4	1.08457
155	0x70	-0.39957845
156	0x8a	0.3424958
157	0x1c	-2.797049
158	0x1a	-2.8541317
159	0xa6	1.1416527
160	0x90	0.5137437
161	0x25	-2.5401773
162	0x5e	-0.91332215
163	0xcc	2.2262228
164	0x62	-0.7991569
165	0xac	1.3129005
166	0x55	-1.170194
167	0x6f	-0.42811975
168	0x84	0.1712479
169	0x55	-1.170194
170	0x3d	-1.8551856
171	0x7c	-0.057082634
172	0x6b	-0.542285
173	0x77	-0.19978923
174	0x75	-0.25687185
175	0x88	0.28541318
176	0x7d	-0.028541317
177	0x21	-2.6543424
178	0x2f	-2.254764
179	0x78	-0.1712479
180	0xa6	1.1416527
181	0x7e	0.0
182	0x17	-2.9397557
183	0x8d	0.42811975
184	0x81	0.08562395
185	0x88	0.28541318
186	0x63	-0.7706156
187	0x83	0.14270659
188	0x73	-0.3139545
189	0xea	3.0824623
190	0x96	0.6849916
191	0xc2	1.9408096
192	0x87	0.25687185
193	0x87	0.25687185
194	0x84	0.1712479
195	0x9b	0.8276982
196	0x85	0.19978923
197	0x8c	0.39957845
198	0x73	-0.3139545
199	0x61	-0.8276982
200	0x9c	0.8562395
201	0x92	0.57082635
202	0xb0	1.4270658
203	0x7a	-0.11416527
204	0x95	0.6564503
205	0x82	0.11416527
206	0x7a	-0.11416527
207	0x8b	0.37103713
208	0x81	0.08562395
209	0x80	0.057082634
210	0x84	0.1712479
211	0x9f	0.9418635
212	0x79	-0.14270659
213	0x69	-0.5993677
214	0x79	-0.14270659
215	0xa0	0.9704048
216	0xc1	1.9122683
217	0x8d	0.42811975
218	0x80	0.057082634
219	0x86	0.22833054
220	0x55	-1.170194
221	0x80	0.057082634
222	0x81	0.08562395
223	0x6e	-0.45666108
224	0x9a	0.7991569
225	0x88	0.28541318
226	0x46	-1.5983138
227	0x4d	-1.3985245
228	0x49	-1.5126898
229	0x99	0.7706156
230	0xd4	2.4545534
231	0x81	0.08562395
232	0xa6	1.1416527
233	0x80	0.057082634
234	0xf2	3.3107927
235	0x1b	-2.8255904
236	0x81	0.08562395
237	0x6f	-0.42811975
238	0x7f	0.028541317
239	0x90	0.5137437
240	0x8c	0.39957845
241	0xac	1.3129005
242	0x65	-0.7135329
243	0xb5	1.5697725
244	0x83	0.14270659
245	0x6e	-0.45666108
246	0xd3	2.426012
247	0x92	0.57082635
248	0x80	0.057082634
249	0x66	-0.6849916
250	0x58	-1.08457
251	0x79	-0.14270659
252	0xa3	1.0560287
253	0x87	0.25687185
254	0x91	0.542285
255	0x85	0.19978923
