lib/mesa/src/gallium/targets/teflon/tests/mobiledet-114.tflite (tflite, 143072 bytes, 1 tensors)

BoxPredictor_4/ClassPredictor/weights_quant/FakeQuantWithMinMaxVars u1 [546, 1, 1, 256] scale=0.0009058216 zero_point=116
00000000: 6a6a 6b6e 6768 686d 6c67 6967 6a6c 606b
00000010: 656f 6d65 6670 676e 6a6a 686e 6a68 6969
00000020: 6e6a 6969 6c5a 6d6e 6e69 696d 6969 6a6e
00000030: 646b 6d67 6e6d 6d67 6d6e 6c66 646e 676f
00000040: 6a70 716b 6d70 6870 706b 6769 6b6b 6762
00000050: 6a6c 6d63 6c6b 666a 6465 6c66 6b69 6d69
00000060: 696c 6763 6e66 656d 6a6f 6e67 6868 6a6f
00000070: 606e 696b 656b 696c 686f 696e 6d6e 6b67
00000080: 6c6e 676c 666f 6e68 6b66 6a6c 6562 6f6e
00000090: 7168 6e67 6a6b 6e6c 706b 6f66 636c 6d6a
000000a0: 6d69 6570 6e6c 656b 686e 6a67 686b 6970
000000b0: 6670 6c68 696e 6966 6969 6764 6b6c 6e6d
000000c0: 6a64 646e 6a63 726a 6a6e 6a65 6b72 676d
000000d0: 6864 6f6b 6472 6766 6a6c 6b6c 6f6a 6c6a
000000e0: 666a 6d69 6d69 6a66 696d 686e 6a69 646b
000000f0: 6d6e 686d 6d71 6c68 6e63 6b6b 6b6d 6b6c
-0.009058217 -0.009058217 -0.008152395 -0.00543493 -0.011775681 -0.01086986 -0.01086986 -0.0063407514
-0.007246573 -0.011775681 -0.009964038 -0.011775681 -0.009058217 -0.007246573 -0.018116433 -0.008152395
-0.013587324 -0.0045291083 -0.0063407514 -0.013587324 -0.012681503 -0.0036232865 -0.011775681 -0.00543493
-0.009058217 -0.009058217 -0.01086986 -0.00543493 -0.009058217 -0.01086986 -0.009964038 -0.009964038
-0.00543493 -0.009058217 -0.009964038 -0.009964038 -0.007246573 -0.023551362 -0.0063407514 -0.00543493
-0.00543493 -0.009964038 -0.009964038 -0.0063407514 -0.009964038 -0.009964038 -0.009058217 -0.00543493
-0.014493146 -0.008152395 -0.0063407514 -0.011775681 -0.00543493 -0.0063407514 -0.0063407514 -0.011775681
-0.0063407514 -0.00543493 -0.007246573 -0.012681503 -0.014493146 -0.00543493 -0.011775681 -0.0045291083
-0.009058217 -0.0036232865 -0.002717465 -0.008152395 -0.0063407514 -0.0036232865 -0.01086986 -0.0036232865
-0.0036232865 -0.008152395 -0.011775681 -0.009964038 -0.008152395 -0.008152395 -0.011775681 -0.01630479
-0.009058217 -0.007246573 -0.0063407514 -0.015398968 -0.007246573 -0.008152395 -0.012681503 -0.009058217
-0.014493146 -0.013587324 -0.007246573 -0.012681503 -0.008152395 -0.009964038 -0.0063407514 -0.009964038
-0.009964038 -0.007246573 -0.011775681 -0.015398968 -0.00543493 -0.012681503 -0.013587324 -0.0063407514
-0.009058217 -0.0045291083 -0.00543493 -0.011775681 -0.01086986 -0.01086986 -0.009058217 -0.0045291083
-0.018116433 -0.00543493 -0.009964038 -0.008152395 -0.013587324 -0.008152395 -0.009964038 -0.007246573
-0.01086986 -0.0045291083 -0.009964038 -0.00543493 -0.0063407514 -0.00543493 -0.008152395 -0.011775681
-0.007246573 -0.00543493 -0.011775681 -0.007246573 -0.012681503 -0.0045291083 -0.00543493 -0.01086986
-0.008152395 -0.012681503 -0.009058217 -0.007246573 -0.013587324 -0.01630479 -0.0045291083 -0.00543493
-0.002717465 -0.01086986 -0.00543493 -0.011775681 -0.009058217 -0.008152395 -0.00543493 -0.007246573
-0.0036232865 -0.008152395 -0.0045291083 -0.012681503 -0.015398968 -0.007246573 -0.0063407514 -0.009058217
-0.0063407514 -0.009964038 -0.013587324 -0.0036232865 -0.00543493 -0.007246573 -0.013587324 -0.008152395
-0.01086986 -0.00543493 -0.009058217 -0.011775681 -0.01086986 -0.008152395 -0.009964038 -0.0036232865
-0.012681503 -0.0036232865 -0.007246573 -0.01086986 -0.009964038 -0.00543493 -0.009964038 -0.012681503
-0.009964038 -0.009964038 -0.011775681 -0.014493146 -0.008152395 -0.007246573 -0.00543493 -0.0063407514
-0.009058217 -0.014493146 -0.014493146 -0.00543493 -0.009058217 -0.015398968 -0.0018116432 -0.009058217
-0.009058217 -0.00543493 -0.009058217 -0.013587324 -0.008152395 -0.0018116432 -0.011775681 -0.0063407514
-0.01086986 -0.014493146 -0.0045291083 -0.008152395 -0.014493146 -0.0018116432 -0.011775681 -0.012681503
-0.009058217 -0.007246573 -0.008152395 -0.007246573 -0.0045291083 -0.009058217 -0.007246573 -0.009058217
-0.012681503 -0.009058217 -0.0063407514 -0.009964038 -0.0063407514 -0.009964038 -0.009058217 -0.012681503
-0.009964038 -0.0063407514 -0.01086986 -0.00543493 -0.009058217 -0.009964038 -0.014493146 -0.008152395
-0.0063407514 -0.00543493 -0.01086986 -0.0063407514 -0.0063407514 -0.002717465 -0.007246573 -0.01086986
-0.00543493 -0.015398968 -0.008152395 -0.008152395 -0.008152395 -0.0063407514 -0.008152395 -0.007246573
