lib/mesa/src/gallium/targets/teflon/tests/mobiledet-067.tflite (tflite, 116864 bytes, 1 tensors)

FeatureExtractor/MobileDetEdgeTPU/IBN_9/Conv_1/weights_quant/FakeQuantWithMinMaxVars u1 [120, 1, 1, 960] scale=0.0147212725 zero_point=119
00000000: 6572 7781 7873 6982 887b 7379 788f 6f80
00000010: 748b 666a 7771 8b86 6d6d 6562 7264 7771
00000020: 7f7d 7d84 7970 6b79 7b6b 8468 807e 7a88
00000030: 6766 6984 7a7b 7493 7a77 797c 5b83 716f
00000040: 7a6b 6e6c 7c84 7d77 7674 766c 7a81 7e85
00000050: 7077 7373 7a91 7974 727b 7171 6687 6e77
00000060: 7585 8a73 7582 8688 8265 7b7d 846d 8168
00000070: 7379 796d 7980 7f8a 776b 8a7b 8079 6a6c
00000080: 7b8a 797b 8172 8e68 7473 8383 6a6e 7b83
00000090: 6d6e 6d7b 767d 8174 8381 7067 6788 747a
000000a0: 6f80 7784 7277 757d 6c78 857d 836d 6c83
000000b0: 7376 7486 7d62 727a 7c6f 8e7a 7a65 8478
000000c0: 877a 617f 8375 6275 7374 787d 6b7e 7683
000000d0: 6862 8057 847d 8e72 756a 6175 8772 7990
000000e0: 7079 878a 766b 8085 757f 7d77 7f69 817e
000000f0: 6f6c 615c 7372 8084 7380 6d7e 7c86 9174
-0.2649829 -0.073606364 0.0 0.14721273 0.0147212725 -0.05888509 -0.20609781 0.161934
0.25026163 0.05888509 -0.05888509 0.029442545 0.0147212725 0.35331053 -0.11777018 0.13249145
-0.044163816 0.29442546 -0.25026163 -0.19137654 0.0 -0.08832763 0.29442546 0.22081909
-0.14721273 -0.14721273 -0.2649829 -0.30914673 -0.073606364 -0.27970418 0.0 -0.08832763
0.11777018 0.08832763 0.08832763 0.19137654 0.029442545 -0.103048906 -0.17665526 0.029442545
0.05888509 -0.17665526 0.19137654 -0.22081909 0.13249145 0.103048906 0.044163816 0.25026163
-0.23554036 -0.25026163 -0.20609781 0.19137654 0.044163816 0.05888509 -0.044163816 0.41219562
0.044163816 0.0 0.029442545 0.073606364 -0.41219562 0.17665526 -0.08832763 -0.11777018
0.044163816 -0.17665526 -0.13249145 -0.161934 0.073606364 0.19137654 0.08832763 0.0
-0.0147212725 -0.044163816 -0.0147212725 -0.161934 0.044163816 0.14721273 0.103048906 0.20609781
-0.103048906 0.0 -0.05888509 -0.05888509 0.044163816 0.38275307 0.029442545 -0.044163816
-0.073606364 0.05888509 -0.08832763 -0.08832763 -0.25026163 0.23554036 -0.13249145 0.0
-0.029442545 0.20609781 0.27970418 -0.05888509 -0.029442545 0.161934 0.22081909 0.25026163
0.161934 -0.2649829 0.05888509 0.08832763 0.19137654 -0.14721273 0.14721273 -0.22081909
-0.05888509 0.029442545 0.029442545 -0.14721273 0.029442545 0.13249145 0.11777018 0.27970418
0.0 -0.17665526 0.27970418 0.05888509 0.13249145 0.029442545 -0.19137654 -0.161934
0.05888509 0.27970418 0.029442545 0.05888509 0.14721273 -0.073606364 0.33858928 -0.22081909
-0.044163816 -0.05888509 0.17665526 0.17665526 -0.19137654 -0.13249145 0.05888509 0.17665526
-0.14721273 -0.13249145 -0.14721273 0.05888509 -0.0147212725 0.08832763 0.14721273 -0.044163816
0.17665526 0.14721273 -0.103048906 -0.23554036 -0.23554036 0.25026163 -0.044163816 0.044163816
-0.11777018 0.13249145 0.0 0.19137654 -0.073606364 0.0 -0.029442545 0.08832763
-0.161934 0.0147212725 0.20609781 0.08832763 0.17665526 -0.14721273 -0.161934 0.17665526
-0.05888509 -0.0147212725 -0.044163816 0.22081909 0.08832763 -0.30914673 -0.073606364 0.044163816
0.073606364 -0.11777018 0.33858928 0.044163816 0.044163816 -0.2649829 0.19137654 0.0147212725
0.23554036 0.044163816 -0.323868 0.11777018 0.17665526 -0.029442545 -0.30914673 -0.029442545
-0.05888509 -0.044163816 0.0147212725 0.08832763 -0.17665526 0.103048906 -0.0147212725 0.17665526
-0.22081909 -0.30914673 0.13249145 -0.47108072 0.19137654 0.08832763 0.33858928 -0.073606364
-0.029442545 -0.19137654 -0.323868 -0.029442545 0.23554036 -0.073606364 0.029442545 0.3680318
-0.103048906 0.029442545 0.23554036 0.27970418 -0.0147212725 -0.17665526 0.13249145 0.20609781
-0.029442545 0.11777018 0.08832763 0.0 0.11777018 -0.20609781 0.14721273 0.103048906
-0.11777018 -0.161934 -0.323868 -0.39747435 -0.05888509 -0.073606364 0.13249145 0.19137654
-0.05888509 0.13249145 -0.14721273 0.103048906 0.073606364 0.22081909 0.38275307 -0.044163816
