lib/mesa/src/gallium/targets/teflon/tests/mobiledet-000.tflite (tflite, 2128 bytes, 1 tensors)

FeatureExtractor/MobileDetEdgeTPU/Conv/weights_quant/FakeQuantWithMinMaxVars u1 [32, 3, 3, 3] scale=0.013768094 zero_point=134
0.13768093 -0.6057961 -1.3492732 0.2202895 0.2202895 -0.592028 -0.06884047 0.440579
0.440579 0.16521713 0.013768094 -0.7985494 -0.041304283 0.06884047 -0.6746366 -0.24782568
0.082608566 -0.06884047 -0.16521713 0.35797045 0.33043426 -0.30289805 0.082608566 0.055072375
-0.041304283 -0.2615938 0.11014475 -1.0463752 -0.09637666 0.93623036 -1.762316 -1.7760841
-1.5833308 -1.1565199 -0.31666616 0.28912997 -0.24782568 0.70217276 0.72970897 -0.78478134
-1.0601432 -0.37173852 0.0 0.6884047 0.4130428 -0.13768093 0.57825994 -0.11014475
-0.34420234 -0.082608566 -0.33043426 -0.5231876 0.7572451 0.09637666 -1.5695627 0.09637666
1.5695627 -0.881158 0.013768094 0.9086942 0.440579 0.15144902 -0.6333323 -1.0326071
-0.09637666 1.1565199 -0.70217276 -0.09637666 0.7572451 0.23405759 0.13768093 -0.38550663
0.46811518 -0.28912997 -0.23405759 0.34420234 -0.13768093 -0.17898522 0.33043426 0.24782568
-0.53695565 -0.28912997 0.28912997 0.56449187 0.61956424 1.321737 1.5144902 0.013768094
0.33043426 0.49565136 -0.33043426 0.027536187 -0.5231876 0.16521713 0.49565136 0.440579
-0.2202895 0.0 -0.4818833 0.16521713 0.55072373 -0.49565136 -0.013768094 0.2202895
-0.440579 0.09637666 0.37173852 -0.46811518 -0.11014475 -0.27536187 -0.19275331 -0.6608685
-1.0601432 -0.4130428 0.2615938 0.11014475 0.17898522 0.041304283 0.15144902 0.013768094
-0.34420234 -0.37173852 -0.13768093 0.23405759 0.28912997 0.16521713 0.24782568 0.35797045
0.12391284 0.09637666 0.16521713 0.09637666 0.31666616 0.4130428 0.16521713 -1.6108669
0.35797045 0.55072373 -0.8673899 0.4268109 0.2065214 0.57825994 -0.082608566 -0.50941944
-1.4181136 -0.06884047 0.31666616 -0.8260856 0.041304283 0.19275331 0.33043426 -0.027536187
-0.19275331 0.53695565 -0.16521713 -0.33043426 0.4268109 0.027536187 -0.15144902 -0.23405759
-0.09637666 0.13768093 -1.8311565 -1.8311565 -1.6246351 -0.38550663 -1.0050708 -0.6471004
0.33043426 0.013768094 -0.27536187 0.027536187 -0.6884047 -0.35797045 0.7159409 0.19275331
0.041304283 0.082608566 0.12391284 -0.30289805 0.31666616 0.09637666 -0.3992747 0.24782568
0.15144902 -0.440579 -0.28912997 0.27536187 -0.13768093 0.4130428 -1.5007222 0.46811518
0.77101326 -0.6884047 0.15144902 -0.013768094 -0.7985494 0.4268109 -1.762316 -1.762316
-0.93623036 -0.06884047 -0.881158 -0.33043426 0.13768093 -0.5231876 0.33043426 -0.3992747
-1.2391285 0.2615938 0.7159409 -0.4268109 0.46811518 0.19275331 -0.440579 0.37173852
0.38550663 0.6333323 0.15144902 -0.6471004 -1.2391285 -0.23405759 0.082608566 -0.013768094
0.16521713 0.8260856 1.2666646 0.38550663 -0.4268109 -0.55072373 -0.2202895 -0.041304283
0.013768094 0.0 0.013768094 0.15144902 -0.17898522 -0.35797045 -0.31666616 -0.23405759
0.013768094 0.082608566 0.16521713 0.33043426 -0.72970897 0.440579 -1.6659393 -1.8173884
-0.53695565 0.041304283 -1.184056 0.34420234 0.61956424 0.027536187 0.38550663 -0.57825994
00000000: 905a 2496 965b 81a6 a692 874c 838b 5574
00000010: 8c81 7aa0 9e70 8c8a 8373 8e3a 7fca 0605
00000020: 1332 6f9b 74b9 bb4d 396b 86b8 a47c b07e
00000030: 6d80 6e60 bd8d 148d f846 87c8 a691 583b
00000040: 7fda 537f bd97 906a a871 759f 7c79 9e98
00000050: 5f71 9baf b3e6 f487 9eaa 6e88 6092 aaa6
00000060: 7686 6392 ae62 8596 668d a164 7e72 7856
00000070: 3968 998e 9389 9187 6d6b 7c97 9b92 98a0
00000080: 8f8d 928d 9da4 9211 a0ae 47a5 95b0 8061
00000090: 1f81 9d4a 8994 9e84 78ad 7a6e a588 7b75
000000a0: 7f90 0101 106a 3d57 9e87 7288 546c ba94
000000b0: 898c 8f70 9d8d 6998 9166 719a 7ca4 19a8
000000c0: be54 9185 4ca5 0606 4281 466e 9060 9e69
000000d0: 2c99 ba67 a894 66a1 a2b4 9157 2c75 8c85
000000e0: 92c2 e2a2 675e 7683 8786 8791 796c 6f75
000000f0: 878c 929e 51a6 0d02 5f89 309f b388 a25c
