lib/mesa/src/gallium/targets/teflon/tests/mobiledet-030.tflite (tflite, 8688 bytes, 1 tensors)

FeatureExtractor/MobileDetEdgeTPU/IBN_1/SeparableConv2d/weights_quant/FakeQuantWithMinMaxVars u1 [1, 3, 3, 576] scale=0.023923043 zero_point=144
00000000: a091 8f84 9a94 a598 8d8f 838a 7f87 978a
00000010: a188 9b85 b698 8f99 968d 8291 9d90 879a
00000020: 8890 8887 7e94 9491 8ca6 918f 9497 9394
00000030: a198 8a91 7f8a 94a0 a484 8f8e 9c89 9291
00000040: 8597 8d8d 8e9c 899a 9696 9f89 9496 8887
00000050: 9a90 8991 8877 9796 9893 9393 8c8a 8590
00000060: 9496 9290 7e91 8c98 9e95 9391 8d8f 928c
00000070: 95c9 978c 899b 9789 8f9e 9692 9b98 788b
00000080: 9190 938f 8e8c 858c 8f98 829b 8c8a 787e
00000090: 9e95 9c89 848e 8e9b 8798 698f 77a5 979d
000000a0: 9292 9490 aa94 8a8a 8d99 9b94 8e8d 9287
000000b0: 9388 8d9e 859f 8c8b 8c94 978c 978f 8795
000000c0: 9d88 909d 9799 8099 9a8d 917f 9774 998f
000000d0: 9499 8085 8b90 899d 9998 9297 8993 987d
000000e0: 8e91 858d 9d93 9c8d 8d8c 8a98 8982 9891
000000f0: 9a94 b68f 9289 9191 aa88 8d91 9793 9992
0.3827687 0.023923043 -0.023923043 -0.28707653 0.23923042 0.09569217 0.5023839 0.19138435
-0.07176913 -0.023923043 -0.31099957 -0.14353827 -0.40669173 -0.21530738 0.1674613 -0.14353827
0.40669173 -0.19138435 0.26315346 -0.26315346 0.9090756 0.19138435 -0.023923043 0.21530738
0.14353827 -0.07176913 -0.3349226 0.023923043 0.31099957 0.0 -0.21530738 0.23923042
-0.19138435 0.0 -0.19138435 -0.21530738 -0.43061477 0.09569217 0.09569217 0.023923043
-0.09569217 0.5263069 0.023923043 -0.023923043 0.09569217 0.1674613 0.07176913 0.09569217
0.40669173 0.19138435 -0.14353827 0.023923043 -0.40669173 -0.14353827 0.09569217 0.3827687
0.47846085 -0.28707653 -0.023923043 -0.047846086 0.28707653 -0.1674613 0.047846086 0.023923043
-0.26315346 0.1674613 -0.07176913 -0.07176913 -0.047846086 0.28707653 -0.1674613 0.23923042
0.14353827 0.14353827 0.35884565 -0.1674613 0.09569217 0.14353827 -0.19138435 -0.21530738
0.23923042 0.0 -0.1674613 0.023923043 -0.19138435 -0.5980761 0.1674613 0.14353827
0.19138435 0.07176913 0.07176913 0.07176913 -0.09569217 -0.14353827 -0.26315346 0.0
0.09569217 0.14353827 0.047846086 0.0 -0.43061477 0.023923043 -0.09569217 0.19138435
0.3349226 0.11961521 0.07176913 0.023923043 -0.07176913 -0.023923043 0.047846086 -0.09569217
0.11961521 1.3636135 0.1674613 -0.09569217 -0.1674613 0.26315346 0.1674613 -0.1674613
-0.023923043 0.3349226 0.14353827 0.047846086 0.26315346 0.19138435 -0.57415307 -0.11961521
0.023923043 0.0 0.07176913 -0.023923043 -0.047846086 -0.09569217 -0.26315346 -0.09569217
-0.023923043 0.19138435 -0.3349226 0.26315346 -0.09569217 -0.14353827 -0.57415307 -0.43061477
0.3349226 0.11961521 0.28707653 -0.1674613 -0.28707653 -0.047846086 -0.047846086 0.26315346
-0.21530738 0.19138435 -0.93299866 -0.023923043 -0.5980761 0.5023839 0.1674613 0.31099957
0.047846086 0.047846086 0.09569217 0.0 0.62199914 0.09569217 -0.14353827 -0.14353827
-0.07176913 0.21530738 0.26315346 0.09569217 -0.047846086 -0.07176913 0.047846086 -0.21530738
0.07176913 -0.19138435 -0.07176913 0.3349226 -0.26315346 0.35884565 -0.09569217 -0.11961521
-0.09569217 0.09569217 0.1674613 -0.09569217 0.1674613 -0.023923043 -0.21530738 0.11961521
0.31099957 -0.19138435 0.0 0.31099957 0.1674613 0.21530738 -0.3827687 0.21530738
0.23923042 -0.07176913 0.023923043 -0.40669173 0.1674613 -0.6698452 0.21530738 -0.023923043
0.09569217 0.21530738 -0.3827687 -0.26315346 -0.11961521 0.0 -0.1674613 0.31099957
0.21530738 0.19138435 0.047846086 0.1674613 -0.1674613 0.07176913 0.19138435 -0.4545378
-0.047846086 0.023923043 -0.26315346 -0.07176913 0.31099957 0.07176913 0.28707653 -0.07176913
-0.07176913 -0.09569217 -0.14353827 0.19138435 -0.1674613 -0.3349226 0.19138435 0.023923043
0.23923042 0.09569217 0.9090756 -0.023923043 0.047846086 -0.1674613 0.023923043 0.023923043
0.62199914 -0.19138435 -0.07176913 0.023923043 0.1674613 0.07176913 0.21530738 0.047846086
