lib/mesa/src/gallium/targets/teflon/tests/mobiledet-088.tflite (tflite, 7840 bytes, 1 tensors)

BoxPredictor_2/BoxEncodingPredictor_depthwise/weights_quant/FakeQuantWithMinMaxVars u1 [1, 3, 3, 512] scale=0.03456315 zero_point=118
000000 73 75 76 76 79 76 65 76 75 71 73 77 79 76 76 73
       -0.10368945 -0.03456315 0.0 0.0 0.10368945 0.0 -0.5875735 0.0 -0.03456315 -0.17281576 -0.10368945 0.03456315 0.10368945 0.0 0.0 -0.10368945
000010 76 78 73 73 76 77 78 76 78 76 7d 76 74 73 74 78
       0.0 0.0691263 -0.10368945 -0.10368945 0.0 0.03456315 0.0691263 0.0 0.0691263 0.0 0.24194205 0.0 -0.0691263 -0.10368945 -0.0691263 0.0691263
000020 76 76 76 7f 77 76 76 7c 76 76 78 63 76 76 77 76
       0.0 0.0 0.0 0.31106836 0.03456315 0.0 0.0 0.2073789 0.0 0.0 0.0691263 -0.65669984 0.0 0.0 0.03456315 0.0
000030 76 76 79 80 78 74 76 72 76 6e 6f 76 75 79 85 76
       0.0 0.0 0.10368945 0.3456315 0.0691263 -0.0691263 0.0 -0.1382526 0.0 -0.2765052 -0.24194205 0.0 -0.03456315 0.10368945 0.5184473 0.0
000040 76 74 76 74 76 6b 77 74 75 7a 75 7c 76 78 76 76
       0.0 -0.0691263 0.0 -0.0691263 0.0 -0.38019466 0.03456315 -0.0691263 -0.03456315 0.1382526 -0.03456315 0.2073789 0.0 0.0691263 0.0 0.0
000050 76 78 6d 76 76 76 74 73 6d 73 83 68 7c 74 72 79
       0.0 0.0691263 -0.31106836 0.0 0.0 0.0 -0.0691263 -0.10368945 -0.31106836 -0.10368945 0.44932094 -0.4838841 0.2073789 -0.0691263 -0.1382526 0.10368945
000060 76 73 7f 78 75 74 73 76 72 73 7f 75 73 6f 78 69
       0.0 -0.10368945 0.31106836 0.0691263 -0.03456315 -0.0691263 -0.10368945 0.0 -0.1382526 -0.10368945 0.31106836 -0.03456315 -0.10368945 -0.24194205 0.0691263 -0.44932094
000070 76 6f 6f 7c 74 76 76 77 7b 7b 77 76 63 76 76 76
       0.0 -0.24194205 -0.24194205 0.2073789 -0.0691263 0.0 0.0 0.03456315 0.17281576 0.17281576 0.03456315 0.0 -0.65669984 0.0 0.0 0.0
000080 78 6b 76 76 75 6f 71 76 7b 75 75 78 75 7b 74 76
       0.0691263 -0.38019466 0.0 0.0 -0.03456315 -0.24194205 -0.17281576 0.0 0.17281576 -0.03456315 -0.03456315 0.0691263 -0.03456315 0.17281576 -0.0691263 0.0
000090 79 77 6f 76 7b 76 76 6a 76 76 78 76 77 76 77 74
       0.10368945 0.03456315 -0.24194205 0.0 0.17281576 0.0 0.0 -0.4147578 0.0 0.0 0.0691263 0.0 0.03456315 0.0 0.03456315 -0.0691263
0000a0 76 77 77 83 7a 75 7c 76 76 75 75 76 81 76 6b 76
       0.0 0.03456315 0.03456315 0.44932094 0.1382526 -0.03456315 0.2073789 0.0 0.0 -0.03456315 -0.03456315 0.0 0.38019466 0.0 -0.38019466 0.0
0000b0 73 7d 5a 72 76 73 76 74 76 69 71 78 6f 76 76 76
       -0.10368945 0.24194205 -0.9677682 -0.1382526 0.0 -0.10368945 0.0 -0.0691263 0.0 -0.44932094 -0.17281576 0.0691263 -0.24194205 0.0 0.0 0.0
0000c0 70 7c 75 79 71 76 76 76 77 76 6f 78 76 76 72 77
       -0.2073789 0.2073789 -0.03456315 0.10368945 -0.17281576 0.0 0.0 0.0 0.03456315 0.0 -0.24194205 0.0691263 0.0 0.0 -0.1382526 0.03456315
0000d0 77 72 76 76 76 76 76 76 72 72 77 74 76 76 76 70
       0.03456315 -0.1382526 0.0 0.0 0.0 0.0 0.0 0.0 -0.1382526 -0.1382526 0.03456315 -0.0691263 0.0 0.0 0.0 -0.2073789
0000e0 78 7e 76 76 76 7a 76 77 76 73 76 74 74 79 76 76
       0.0691263 0.2765052 0.0 0.0 0.0 0.1382526 0.0 0.03456315 0.0 -0.10368945 0.0 -0.0691263 -0.0691263 0.10368945 0.0 0.0
0000f0 79 76 7c 82 76 76 73 8b 6f 41 76 76 76 70 7d 76
       0.10368945 0.0 0.2073789 0.4147578 0.0 0.0 -0.10368945 0.72582614 -0.24194205 -1.831847 0.0 0.0 0.0 -0.2073789 0.24194205 0.0
