lib/mesa/src/gallium/targets/teflon/tests/mobiledet-079.tflite (tflite, 2912 bytes, 1 tensors)

FeatureExtractor/MobileDetEdgeTPU/C5_2_Conv2d_4_3x3_s2_256_depthwise/weights_quant/FakeQuantWithMinMaxVars u1 [1, 3, 3, 128] scale=0.03240941 zero_point=135
00000000: 8f99 778e 858d 85c3 838d 777e 9182 7d8f
00000010: 7188 918f 8f91 8f7d 9081 9193 9298 8e8b
00000020: a28c 8f20 908d 808f 9681 7f88 8382 9f87
00000030: 9c93 8f93 9090 9098 828f 906a 8e80 9081
00000040: 9588 808e 898b 8397 8a8d 7c72 8b90 858a
00000050: 9070 8191 8e90 8b67 8d74 8e8f 8e6e 96c1
00000060: 7d90 9191 8592 a98c 9289 8283 8d76 8f7c
00000070: 907a a25b 7b7d 8d91 737d 9179 878d 188e
00000080: 9283 7b89 6e93 8888 8b90 847e 9183 7b92
00000090: 65a0 8693 9091 9186 9e8a 9292 90a7 9191
000000a0: 6390 7ad3 9290 808b 8180 7c85 6b8b 84b8
000000b0: 7f95 9090 928f 949c 818f 7db4 8d75 967b
000000c0: 92a7 7b91 7d9b a69b 8a93 7d8d 7991 c799
000000d0: 92e2 818f 918d 9582 919f 7490 9298 6d5b
000000e0: 9a8e 9397 8294 7e95 938a 8488 8788 9082
000000f0: 9481 d44c 9e72 9377 7b76 926c 6d91 1d8f
0.2592753 0.5833694 -0.5185506 0.22686587 -0.06481882 0.19445646 -0.06481882 1.9445647
-0.12963764 0.19445646 -0.5185506 -0.2916847 0.32409412 -0.16204706 -0.32409412 0.2592753
-0.71300703 0.03240941 0.32409412 0.2592753 0.2592753 0.32409412 0.2592753 -0.32409412
0.2916847 -0.19445646 0.32409412 0.38891292 0.35650352 0.55096 0.22686587 0.12963764
0.8750541 0.16204706 0.2592753 -3.3381693 0.2916847 0.19445646 -0.22686587 0.2592753
0.48614118 -0.19445646 -0.2592753 0.03240941 -0.12963764 -0.16204706 0.77782583 0.0
0.6805976 0.38891292 0.2592753 0.38891292 0.2916847 0.2916847 0.2916847 0.55096
-0.16204706 0.2592753 0.2916847 -0.9398729 0.22686587 -0.22686587 0.2916847 -0.19445646
0.45373175 0.03240941 -0.22686587 0.22686587 0.06481882 0.12963764 -0.12963764 0.5185506
0.09722823 0.19445646 -0.35650352 -0.6805976 0.12963764 0.2916847 -0.06481882 0.09722823
0.2916847 -0.74541646 -0.19445646 0.32409412 0.22686587 0.2916847 0.12963764 -1.0371011
0.19445646 -0.6157788 0.22686587 0.2592753 0.22686587 -0.81023526 0.48614118 1.8797458
-0.32409412 0.2916847 0.32409412 0.32409412 -0.06481882 0.35650352 1.10192 0.16204706
0.35650352 0.06481882 -0.16204706 -0.12963764 0.19445646 -0.55096 0.2592753 -0.35650352
0.2916847 -0.42132235 0.8750541 -1.4260141 -0.38891292 -0.32409412 0.19445646 0.32409412
-0.64818823 -0.32409412 0.32409412 -0.45373175 0.0 0.19445646 -3.5974445 0.22686587
0.35650352 -0.12963764 -0.38891292 0.06481882 -0.81023526 0.38891292 0.03240941 0.03240941
0.12963764 0.2916847 -0.09722823 -0.2916847 0.32409412 -0.12963764 -0.38891292 0.35650352
-1.10192 0.81023526 -0.03240941 0.38891292 0.2916847 0.32409412 0.32409412 -0.03240941
0.74541646 0.09722823 0.35650352 0.35650352 0.2916847 1.0371011 0.32409412 0.32409412
-1.1667387 0.2916847 -0.42132235 2.4631152 0.35650352 0.2916847 -0.22686587 0.12963764
-0.19445646 -0.22686587 -0.35650352 -0.06481882 -0.9074635 0.12963764 -0.09722823 1.5880611
-0.2592753 0.45373175 0.2916847 0.2916847 0.35650352 0.2592753 0.42132235 0.6805976
-0.19445646 0.2592753 -0.32409412 1.4584235 0.19445646 -0.5833694 0.48614118 -0.38891292
0.35650352 1.0371011 -0.38891292 0.32409412 -0.32409412 0.64818823 1.0046917 0.64818823
0.09722823 0.38891292 -0.32409412 0.19445646 -0.45373175 0.32409412 2.0742023 0.5833694
0.35650352 2.9492564 -0.19445646 0.2592753 0.32409412 0.19445646 0.45373175 -0.16204706
0.32409412 0.77782583 -0.6157788 0.2916847 0.35650352 0.55096 -0.8426447 -1.4260141
0.6157788 0.22686587 0.38891292 0.5185506 -0.16204706 0.42132235 -0.2916847 0.45373175
0.38891292 0.09722823 -0.09722823 0.03240941 0.0 0.03240941 0.2916847 -0.16204706
0.42132235 -0.19445646 2.4955246 -1.9121553 0.74541646 -0.6805976 0.38891292 -0.5185506
-0.38891292 -0.55096 0.35650352 -0.8750541 -0.8426447 0.32409412 -3.4353976 0.2592753
