lib/mesa/src/gallium/targets/teflon/tests/mobiledet-024.tflite (tflite, 7776 bytes, 1 tensors)

FeatureExtractor/MobileDetEdgeTPU/FusedConv_7/Conv_1/weights_quant/FakeQuantWithMinMaxVars u1 [40, 1, 1, 160] scale=0.02467375 zero_point=130
000000 94 63 7f 76 71 bd 62 ae d2 78 a5 4d 91 77 91 7d
       0.4441275 -0.76488626 -0.07402125 -0.296085 -0.41945377 1.4557513 -0.78956 1.0856451 1.9739001 -0.24673751 0.8635813 -1.3077087 0.37010625 -0.27141127 0.37010625 -0.123368755
000010 54 d8 45 71 a4 96 a8 63 85 86 68 75 9a 22 61 87
       -1.1349925 2.1219425 -1.5050988 -0.41945377 0.83890754 0.49347502 0.9376025 -0.76488626 0.07402125 0.098695 -0.6415175 -0.32075876 0.59217 -2.36868 -0.8142338 0.123368755
000020 88 62 a0 6d a1 9e 58 80 4c 8d 71 8b c3 80 5e 7e
       0.1480425 -0.78956 0.7402125 -0.5181488 0.76488626 0.69086504 -1.0362976 -0.0493475 -1.3323826 0.27141127 -0.41945377 0.22206375 1.6037937 -0.0493475 -0.888255 -0.098695
000030 82 93 85 81 96 97 a4 22 bc c0 33 72 5a 79 61 8a
       0.0 0.41945377 0.07402125 -0.02467375 0.49347502 0.5181488 0.83890754 -2.36868 1.4310775 1.5297725 -1.9492263 -0.39478 -0.98695004 -0.22206375 -0.8142338 0.19739
000040 9e ae 5f 90 7a 68 a6 56 ae 50 25 c2 92 68 71 71
       0.69086504 1.0856451 -0.8635813 0.34543252 -0.19739 -0.6415175 0.888255 -1.0856451 1.0856451 -1.2336875 -2.294659 1.57912 0.39478 -0.6415175 -0.41945377 -0.41945377
000050 54 55 83 88 69 9b a2 74 6c 78 7b aa b9 8a 6a aa
       -1.1349925 -1.1103188 0.02467375 0.1480425 -0.61684376 0.61684376 0.78956 -0.34543252 -0.54282254 -0.24673751 -0.17271626 0.98695004 1.3570563 0.19739 -0.59217 0.98695004
000060 9b 1b 89 90 85 9b ae aa 55 83 c2 7f 68 55 66 a7
       0.61684376 -2.5413964 0.17271626 0.34543252 0.07402125 0.61684376 1.0856451 0.98695004 -1.1103188 0.02467375 1.57912 -0.07402125 -0.6415175 -1.1103188 -0.69086504 0.91292876
000070 aa 95 6f 87 e8 57 74 89 8b 95 af 94 6e 75 6d 98
       0.98695004 0.46880126 -0.46880126 0.123368755 2.5167227 -1.0609713 -0.34543252 0.17271626 0.22206375 0.46880126 1.1103188 0.4441275 -0.49347502 -0.32075876 -0.5181488 0.54282254
000080 67 9b 80 5e b0 b2 b9 88 7a 6c 7e bd 88 65 4d 86
       -0.6661913 0.61684376 -0.0493475 -0.888255 1.1349925 1.18434 1.3570563 0.1480425 -0.19739 -0.54282254 -0.098695 1.4557513 0.1480425 -0.71553874 -1.3077087 0.098695
000090 72 95 91 a5 91 63 6f 59 99 8e 80 64 47 68 3f 81
       -0.39478 0.46880126 0.37010625 0.8635813 0.37010625 -0.76488626 -0.46880126 -1.0116237 0.56749624 0.296085 -0.0493475 -0.7402125 -1.4557513 -0.6415175 -1.6531413 -0.02467375
0000a0 b0 60 73 83 48 7e 5b 60 58 a8 9a 87 76 76 76 b2
       1.1349925 -0.83890754 -0.37010625 0.02467375 -1.4310775 -0.098695 -0.9622763 -0.83890754 -1.0362976 0.9376025 0.59217 0.123368755 -0.296085 -0.296085 -0.296085 1.18434
0000b0 72 78 80 a8 9c ac 74 5a 83 97 90 58 67 5c 8e 9c
       -0.39478 -0.24673751 -0.0493475 0.9376025 0.6415175 1.0362976 -0.34543252 -0.98695004 0.02467375 0.5181488 0.34543252 -1.0362976 -0.6661913 -0.9376025 0.296085 0.6415175
0000c0 71 97 72 91 80 73 94 89 97 97 68 a8 9e 76 4a 86
       -0.41945377 0.5181488 -0.39478 0.37010625 -0.0493475 -0.37010625 0.4441275 0.17271626 0.5181488 0.5181488 -0.6415175 0.9376025 0.69086504 -0.296085 -1.3817301 0.098695
0000d0 8b 7a 83 84 8a 77 7e b1 9e a9 76 94 65 6f 79 7d
       0.22206375 -0.19739 0.02467375 0.0493475 0.19739 -0.27141127 -0.098695 1.1596663 0.69086504 0.9622763 -0.296085 0.4441275 -0.71553874 -0.46880126 -0.22206375 -0.123368755
0000e0 89 78 5e 77 74 82 a3 87 a4 99 b5 5a 74 9a 95 ab
       0.17271626 -0.24673751 -0.888255 -0.27141127 -0.34543252 0.0 0.8142338 0.123368755 0.83890754 0.56749624 1.2583613 -0.98695004 -0.34543252 0.59217 0.46880126 1.0116237
0000f0 92 95 87 6b ae 9a 57 4c b1 7e 5c 79 60 71 a5 45
       0.39478 0.46880126 0.123368755 -0.56749624 1.0856451 0.59217 -1.0609713 -1.3323826 1.1596663 -0.098695 -0.9376025 -0.22206375 -0.83890754 -0.41945377 0.8635813 -1.5050988
