lib/mesa/src/gallium/targets/teflon/tests/yolox-103.tflite (tflite, 1168 bytes, 1 tensors)

tfl.pseudo_qconst66 u1 [1, 1, 1, 96] scale=0.0047416035 zero_point=91
00000000: 264e 3b1e 4a5e 8d47 5551 2d4d 201f 3c1d
00000010: 5c16 0c24 5976 ff4c 235b 6255 421d 5256
00000020: 0d47 4840 2956 574e 6762 5827 1c48 1c50
00000030: 5a25 0145 204d 2e34 5b46 513e 5348 345a
00000040: 1e42 4651 5956 4c54 491b 3758 235e 4647
00000050: 4540 1243 6222 5f6f 5c44 501a 4f50 246b
-0.25130498 -0.061640844 -0.15173131 -0.28923783 -0.08060726 0.0142248105 0.23708017 -0.09483207
-0.028449621 -0.047416035 -0.21811377 -0.06638245 -0.2797546 -0.28449622 -0.1469897 -0.2939794
0.0047416035 -0.32717064 -0.37458667 -0.2607882 -0.009483207 0.1280233 0.777623 -0.071124054
-0.2655298 0.0 0.033191226 -0.028449621 -0.118540086 -0.2939794 -0.04267443 -0.023708018
-0.36984506 -0.09483207 -0.09009047 -0.1280233 -0.23708017 -0.023708018 -0.018966414 -0.061640844
0.056899242 0.033191226 -0.0142248105 -0.24656337 -0.29872102 -0.09009047 -0.29872102 -0.05215764
-0.0047416035 -0.2560466 -0.4267443 -0.10431528 -0.2797546 -0.06638245 -0.21337216 -0.18492253
0.0 -0.09957367 -0.047416035 -0.1375065 -0.037932828 -0.09009047 -0.18492253 -0.0047416035
-0.28923783 -0.118540086 -0.09957367 -0.047416035 -0.009483207 -0.023708018 -0.071124054 -0.033191226
-0.08534886 -0.30346262 -0.17069772 -0.0142248105 -0.2655298 0.0142248105 -0.09957367 -0.09483207
-0.10431528 -0.1280233 -0.34613705 -0.113798484 0.033191226 -0.2702714 0.018966414 0.09483207
0.0047416035 -0.10905688 -0.05215764 -0.30820423 -0.056899242 -0.05215764 -0.2607882 0.075865656
