lib/mesa/src/gallium/targets/teflon/tests/yolox-106.tflite (tflite, 19936 bytes, 1 tensors)

tfl.pseudo_qconst67 u1 [96, 1, 1, 192] scale=0.010452031 zero_point=165
000000 a8 a8 a8 9e a8 aa a2 a8 af a6 a9 a5 ad a8 a0 b0
       0.031356093 0.031356093 0.031356093 -0.07316422 0.031356093 0.052260157 -0.031356093 0.031356093 0.10452031 0.010452031 0.041808125 0.0 0.08361625 0.031356093 -0.052260157 0.114972346
000010 a7 a2 a3 a5 a1 ac a9 af a2 aa a0 ab ac a5 a4 b2
       0.020904062 -0.031356093 -0.020904062 0.0 -0.041808125 0.07316422 0.041808125 0.10452031 -0.031356093 0.052260157 -0.052260157 0.062712185 0.07316422 0.0 -0.010452031 0.1358764
000020 ad ad a6 aa af 96 a7 a7 a9 9c 9b a2 a4 aa 9a a2
       0.08361625 0.08361625 0.010452031 0.052260157 0.10452031 -0.15678047 0.020904062 0.020904062 0.041808125 -0.09406828 -0.10452031 -0.031356093 -0.010452031 0.052260157 -0.114972346 -0.031356093
000030 be 8e a0 a6 a6 9f 9d 99 ad a9 9d a1 9b 9b a3 9b
       0.26130077 -0.24039672 -0.052260157 0.010452031 0.010452031 -0.062712185 -0.08361625 -0.12542437 0.08361625 0.041808125 -0.08361625 -0.041808125 -0.10452031 -0.10452031 -0.020904062 -0.10452031
000040 99 ac a5 a7 a2 a9 aa a6 a2 a6 a1 ac a7 a1 a7 b2
       -0.12542437 0.07316422 0.0 0.020904062 -0.031356093 0.041808125 0.052260157 0.010452031 -0.031356093 0.010452031 -0.041808125 0.07316422 0.020904062 -0.041808125 0.020904062 0.1358764
000050 a7 9b 9a 95 9f b1 a3 a5 b5 a5 95 a1 9d a9 a7 aa
       0.020904062 -0.10452031 -0.114972346 -0.1672325 -0.062712185 0.12542437 -0.020904062 0.0 0.1672325 0.0 -0.1672325 -0.041808125 -0.08361625 0.041808125 0.020904062 0.052260157
000060 a2 a3 9a 9b a3 a5 a5 ad a5 a3 a7 a6 a2 af ab a3
       -0.031356093 -0.020904062 -0.114972346 -0.10452031 -0.020904062 0.0 0.0 0.08361625 0.0 -0.020904062 0.020904062 0.010452031 -0.031356093 0.10452031 0.062712185 -0.020904062
000070 a9 a7 a6 a3 a8 ac a6 bd a4 a7 a2 b9 a6 a0 b7 a9
       0.041808125 0.020904062 0.010452031 -0.020904062 0.031356093 0.07316422 0.010452031 0.25084874 -0.010452031 0.020904062 -0.031356093 0.20904063 0.010452031 -0.052260157 0.18813656 0.041808125
000080 a8 a5 a2 a5 a3 a7 a1 ae a1 a3 8d bf a2 80 a9 a2
       0.031356093 0.0 -0.031356093 0.0 -0.020904062 0.020904062 -0.041808125 0.09406828 -0.041808125 -0.020904062 -0.25084874 0.2717528 -0.031356093 -0.38672516 0.041808125 -0.031356093
000090 ab a5 a0 a1 a4 9e a0 9f a5 9b a5 a5 ab a1 ae 9d
       0.062712185 0.0 -0.052260157 -0.041808125 -0.010452031 -0.07316422 -0.052260157 -0.062712185 0.0 -0.10452031 0.0 0.0 0.062712185 -0.041808125 0.09406828 -0.08361625
0000a0 ab a5 aa 9e a5 b0 9c ab a6 a0 b5 b0 9f a6 9d ac
       0.062712185 0.0 0.052260157 -0.07316422 0.0 0.114972346 -0.09406828 0.062712185 0.010452031 -0.052260157 0.1672325 0.114972346 -0.062712185 0.010452031 -0.08361625 0.07316422
0000b0 9f 9a a7 ae 9a 9d b5 af ab a0 a5 9c ac a4 a4 a5
       -0.062712185 -0.114972346 0.020904062 0.09406828 -0.114972346 -0.08361625 0.1672325 0.10452031 0.062712185 -0.052260157 0.0 -0.09406828 0.07316422 -0.010452031 -0.010452031 0.0
0000c0 a9 91 96 a3 a9 ba c8 a9 a1 b4 9f b9 ab 97 a5 a8
       0.041808125 -0.20904063 -0.15678047 -0.020904062 0.041808125 0.21949266 0.3658211 0.041808125 -0.041808125 0.15678047 -0.062712185 0.20904063 0.062712185 -0.14632843 0.0 0.031356093
0000d0 ad a6 ad 9e a5 a3 a8 7b a2 a3 a8 8e b5 9f 9b b4
       0.08361625 0.010452031 0.08361625 -0.07316422 0.0 -0.020904062 0.031356093 -0.43898532 -0.031356093 -0.020904062 0.031356093 -0.24039672 0.1672325 -0.062712185 -0.10452031 0.15678047
0000e0 a5 a2 a6 a0 a2 a5 9e 9d 70 9f a6 a6 9f b8 94 b1
       0.0 -0.031356093 0.010452031 -0.052260157 -0.031356093 0.0 -0.07316422 -0.08361625 -0.55395764 -0.062712185 0.010452031 0.010452031 -0.062712185 0.1985886 -0.17768453 0.12542437
0000f0 a3 a8 b7 aa ad a8 a7 a3 b0 9d a6 a5 a8 ac a0 a2
       -0.020904062 0.031356093 0.18813656 0.052260157 0.08361625 0.031356093 0.020904062 -0.020904062 0.114972346 -0.08361625 0.010452031 0.0 0.031356093 0.07316422 -0.052260157 -0.031356093
