lib/mesa/src/gallium/targets/teflon/tests/yolox-046.tflite (tflite, 666144 bytes, 1 tensors)

tfl.pseudo_qconst27 u1 [384, 3, 3, 192] scale=0.002978812 zero_point=117
0.023830496 0.01489406 0.011915248 0.02978812 -0.01489406 0.005957624 -0.01489406 0.002978812
0.005957624 0.017872872 -0.020851683 0.0 0.0 0.020851683 0.0 0.0
-0.01489406 0.002978812 -0.020851683 0.0 0.011915248 0.041703366 -0.020851683 0.0
0.050639804 0.005957624 -0.020851683 -0.01489406 -0.02978812 0.002978812 -0.008936436 0.0
-0.017872872 0.005957624 -0.005957624 -0.005957624 0.0 -0.011915248 0.0 0.005957624
0.008936436 0.008936436 -0.005957624 0.005957624 -0.01489406 0.026809309 0.002978812 0.0
0.038724557 0.0 -0.053618617 -0.005957624 0.026809309 -0.020851683 0.002978812 0.0
0.005957624 -0.011915248 -0.005957624 -0.011915248 0.01489406 0.017872872 0.005957624 -0.008936436
-0.002978812 0.017872872 -0.01489406 0.035745744 -0.011915248 -0.050639804 -0.035745744 -0.02978812
0.03276693 -0.011915248 -0.011915248 0.04766099 -0.023830496 0.026809309 0.0 -0.01489406
0.01489406 0.008936436 -0.011915248 0.0 0.005957624 0.026809309 0.002978812 -0.026809309
-0.005957624 0.023830496 -0.02978812 -0.002978812 -0.035745744 0.03276693 -0.008936436 0.01489406
-0.008936436 -0.041703366 0.041703366 0.020851683 0.011915248 0.041703366 -0.02978812 0.0
0.011915248 -0.017872872 -0.017872872 0.0 -0.02978812 0.008936436 0.011915248 -0.01489406
0.002978812 -0.041703366 -0.017872872 0.008936436 -0.008936436 -0.008936436 0.01489406 0.002978812
0.023830496 0.008936436 0.023830496 -0.026809309 0.038724557 0.02978812 -0.017872872 -0.02978812
0.020851683 0.023830496 0.035745744 0.005957624 -0.008936436 -0.008936436 0.008936436 0.008936436
-0.03276693 0.023830496 0.002978812 0.002978812 0.023830496 0.008936436 -0.011915248 -0.026809309
0.023830496 -0.02978812 0.008936436 0.01489406 -0.008936436 0.002978812 0.02978812 -0.005957624
0.020851683 -0.020851683 0.0 -0.011915248 -0.023830496 0.035745744 0.011915248 -0.038724557
-0.02978812 0.0 -0.005957624 0.017872872 0.011915248 -0.038724557 0.011915248 -0.020851683
-0.020851683 0.011915248 -0.02978812 -0.07149149 0.005957624 -0.02978812 -0.03276693 0.011915248
0.041703366 -0.002978812 -0.017872872 0.011915248 -0.023830496 -0.002978812 -0.02978812 -0.035745744
-0.017872872 -0.011915248 0.01489406 0.01489406 -0.017872872 -0.017872872 -0.01489406 0.002978812
0.002978812 0.023830496 -0.005957624 0.04468218 -0.026809309 -0.005957624 -0.038724557 -0.02978812
0.02978812 0.008936436 0.011915248 -0.03276693 -0.020851683 0.050639804 0.0 -0.023830496
-0.011915248 -0.011915248 -0.008936436 0.008936436 0.026809309 0.053618617 0.01489406 0.026809309
0.06255505 0.002978812 -0.020851683 -0.02978812 -0.035745744 0.002978812 -0.02978812 -0.020851683
-0.026809309 0.0 -0.038724557 -0.03276693 0.026809309 -0.026809309 0.01489406 0.04766099
0.008936436 -0.017872872 -0.01489406 0.008936436 -0.01489406 0.026809309 0.011915248 0.002978812
0.020851683 -0.002978812 -0.056597427 -0.023830496 -0.023830496 -0.03276693 -0.002978812 0.020851683
0.011915248 -0.020851683 -0.01489406 -0.005957624 0.020851683 0.01489406 -0.01489406 -0.005957624
00000000: 7d7a 797f 7077 7076 777b 6e75 757c 7575
00000010: 7076 6e75 7983 6e75 8677 6e70 6b76 7275
00000020: 6f77 7373 7571 7577 7878 7377 707e 7675
00000030: 8275 6373 7e6e 7675 7771 7371 7a7b 7772
00000040: 747b 7081 7164 696b 8071 7185 6d7e 7570
00000050: 7a78 7175 777e 766c 737d 6b74 6980 727a
00000060: 7267 837c 7983 6b75 796f 6f75 6b78 7970
00000070: 7667 6f78 7272 7a76 7d78 7d6c 827f 6f6b
00000080: 7c7d 8177 7272 7878 6a7d 7676 7d78 716c
00000090: 7d6b 787a 7276 7f73 7c6e 7571 6d81 7968
000000a0: 6b75 737b 7968 796e 6e79 6b5d 776b 6a79
000000b0: 8374 6f79 6d74 6b69 6f71 7a7a 6f6f 7076
000000c0: 767d 7384 6c73 686b 7f78 796a 6e86 756d
000000d0: 7171 7278 7e87 7a7e 8a76 6e6b 6976 6b6e
000000e0: 6c75 686a 7e6c 7a85 786f 7078 707e 7976
000000f0: 7c74 626d 6d6a 747c 796e 7073 7c7a 7073
