lib/mesa/src/gallium/targets/teflon/tests/yolox-113.tflite (tflite, 1472 bytes, 1 tensors)

tfl.pseudo_qconst73 u1 [4, 1, 1, 96] scale=0.002464542 zero_point=127
-0.002464542 0.0 -0.1823761 0.002464542 -0.002464542 -0.22673786 -0.13062072 0.017251793
-0.16512431 0.004929084 -0.014787251 0.0 0.017251793 0.044361755 -0.22673786 0.0
0.2760287 0.0 -0.05175538 0.0 -0.0764008 0.0 -0.0073936256 0.0
-0.20948607 -0.002464542 0.0 -0.004929084 0.20702152 0.004929084 0.002464542 -0.19962789
0.0 0.002464542 0.0 -0.002464542 -0.30313864 -0.002464542 0.0 0.019716335
0.26617053 0.0 0.0 0.17744702 0.28835142 0.0 -0.017251793 0.13554981
0.022180878 0.027109962 -0.20702152 -0.009858168 -0.034503587 0.0 -0.002464542 0.002464542
0.004929084 -0.04189721 -0.11336893 0.004929084 -0.002464542 0.18484065 0.11829801 0.0
0.0 0.10104622 0.03696813 0.06161355 0.002464542 -0.004929084 -0.014787251 0.0
-0.002464542 0.0 0.16019523 -0.009858168 -0.20455699 -0.002464542 0.09365259 0.0
-0.022180878 0.0 0.0073936256 0.002464542 0.0 -0.26863506 -0.002464542 0.002464542
0.0 0.11090439 -0.04189721 0.09365259 0.22673786 0.0 -0.022180878 0.0
0.0 -0.002464542 0.0 0.07147171 -0.027109962 -0.002464542 -0.009858168 -0.01232271
0.022180878 -0.1700534 0.03696813 -0.14294343 -0.2292024 -0.014787251 -0.029574502 -0.009858168
0.01232271 -0.19716336 0.0 -0.004929084 0.017251793 0.0 -0.05175538 -0.07147171
0.08379442 -0.002464542 0.002464542 0.0764008 0.004929084 0.0 0.004929084 0.046826296
0.0 0.0 -0.17744702 -0.11336893 0.002464542 0.0 -0.022180878 0.06900717
-0.002464542 0.002464542 0.2119506 -0.05175538 -0.002464542 0.18484065 -0.03696813 0.009858168
-0.01232271 -0.01232271 0.0073936256 0.25138327 -0.13554981 0.0 0.0 0.002464542
0.19962789 -0.009858168 0.004929084 0.15773068 0.0 0.0073936256 0.0 0.3006741
-0.002464542 0.0 0.002464542 0.009858168 0.009858168 -0.14787252 -0.11090439 0.002464542
0.002464542 0.09365259 0.14294343 -0.29081595 0.002464542 -0.14540797 -0.017251793 -0.22427331
-0.10104622 0.002464542 0.04189721 0.04929084 -0.002464542 -0.06407809 0.19469881 -0.31053227
0.28835142 0.014787251 0.004929084 0.0 -0.01232271 0.004929084 0.0 0.31546137
0.0 0.0 0.056684464 -0.002464542 -0.1823761 0.014787251 0.056684464 0.017251793
-0.263706 -0.02464542 0.002464542 0.009858168 0.009858168 0.019716335 0.01232271 0.0
0.17744702 0.0 -0.23906057 -0.04929084 -0.004929084 -0.002464542 0.0 0.002464542
0.05175538 0.0 -0.004929084 0.009858168 0.054219924 0.0 0.0 0.13062072
0.0 0.0 0.0 0.002464542 0.03943267 0.0 0.004929084 -0.10104622
0.002464542 0.0 0.004929084 0.009858168 0.03696813 0.0 -0.002464542 -0.21934423
0.11829801 -0.046826296 0.06407809 -0.0073936256 -0.06900717 0.0 0.0 0.0
-0.019716335 0.2292024 -0.046826296 -0.017251793 -0.10843985 0.056684464 -0.12569164 0.002464542
00000000: 7e7f 3580 7e23 4a86 3c81 797f 8691 237f
00000010: ef7f 6a7f 607f 7c7f 2a7e 7f7d d381 802e
00000020: 7f80 7f7e 047e 7f87 eb7f 7fc7 f47f 78b6
00000030: 888a 2b7b 717f 7e80 816e 5181 7eca af7f
00000040: 7fa8 8e98 807d 797f 7e7f c07b 2c7e a57f
00000050: 767f 8280 7f12 7e80 7fac 6ea5 db7f 767f
00000060: 7f7e 7f9c 747e 7b7a 883a 8e45 2279 737b
00000070: 842f 7f7d 867f 6a62 a17e 809e 817f 8192
00000080: 7f7f 3751 807f 769b 7e80 d56a 7eca 7083
00000090: 7a7a 82e5 487f 7f80 d07b 81bf 7f82 7ff9
000000a0: 7e7f 8083 8343 5280 80a5 b909 8044 7824
000000b0: 5680 9093 7e65 ce01 f485 817f 7a81 7fff
000000c0: 7f7f 967e 3585 9686 1475 8083 8387 847f
000000d0: c77f 1e6b 7d7e 7f80 947f 7d83 957f 7fb4
000000e0: 7f7f 7f80 8f7f 8156 807f 8183 8e7f 7e26
000000f0: af6c 997c 637f 7f7f 77dc 6c78 5396 4c80
