lib/mesa/src/gallium/targets/teflon/tests/yolox-058.tflite (tflite, 150032 bytes, 1 tensors)

tfl.pseudo_qconst34 u1 [384, 1, 1, 384] scale=0.007551259 zero_point=128
0.10571762 0.11326888 0.1661277 0.037756294 -0.1661277 0.06796133 0.0 -0.07551259
-0.022653777 -0.05285881 0.06796133 0.08306385 -0.030205036 -0.06041007 0.07551259 0.030205036
-0.1283714 0.05285881 -0.022653777 0.037756294 -0.05285881 -0.20388399 0.05285881 -0.06041007
0.037756294 0.09816637 0.0 -0.045307554 0.022653777 -0.037756294 0.15102518 -0.13592266
0.05285881 -0.05285881 0.0 -0.18878147 0.030205036 0.15102518 0.12082014 -0.1283714
-0.07551259 -0.015102518 -0.045307554 0.045307554 -0.06796133 -0.045307554 -0.05285881 -0.022653777
-0.045307554 -0.045307554 0.0 -0.015102518 -0.030205036 0.015102518 -0.07551259 -0.05285881
-0.030205036 0.045307554 -0.17367895 -0.022653777 0.030205036 0.18123022 0.06796133 -0.037756294
0.037756294 0.007551259 0.015102518 0.05285881 0.030205036 -0.045307554 0.06796133 -0.13592266
0.07551259 0.1283714 0.030205036 -0.21143524 0.08306385 0.06796133 -0.09816637 -0.015102518
0.15102518 0.0 0.037756294 0.06041007 0.007551259 0.045307554 0.05285881 0.07551259
-0.08306385 -0.1283714 -0.007551259 -0.015102518 -0.06796133 -0.007551259 0.037756294 0.08306385
-0.015102518 0.09061511 0.11326888 0.037756294 0.045307554 0.06041007 0.007551259 0.022653777
-0.09816637 0.022653777 -0.030205036 -0.022653777 -0.045307554 -0.037756294 0.045307554 0.015102518
-0.13592266 0.10571762 -0.037756294 0.0 -0.045307554 -0.045307554 0.030205036 -0.015102518
-0.06796133 -0.007551259 -0.13592266 0.07551259 -0.13592266 -0.037756294 -0.07551259 0.10571762
-0.19633274 0.007551259 -0.1661277 0.037756294 0.05285881 0.08306385 0.09061511 0.045307554
0.030205036 0.0 -0.15857644 0.037756294 -0.10571762 -0.022653777 0.022653777 0.07551259
-0.007551259 -0.05285881 -0.045307554 -0.06041007 0.07551259 -0.1283714 0.015102518 -0.06796133
0.030205036 0.037756294 0.09061511 0.030205036 0.18123022 -0.21143524 0.045307554 -0.022653777
0.15102518 0.08306385 0.0 0.15102518 -0.015102518 -0.015102518 0.06041007 -0.18123022
0.022653777 0.06796133 -0.12082014 0.09061511 -0.15102518 0.045307554 0.06796133 0.0
0.022653777 0.08306385 -0.15102518 -0.045307554 -0.007551259 0.05285881 0.015102518 -0.08306385
-0.030205036 0.0 -0.10571762 -0.007551259 0.030205036 -0.045307554 0.030205036 0.007551259
0.0 0.15102518 0.08306385 0.022653777 0.09061511 0.09816637 -0.030205036 -0.007551259
0.11326888 -0.07551259 -0.13592266 -0.022653777 0.07551259 -0.06796133 0.037756294 0.1283714
0.007551259 0.06796133 -0.007551259 0.015102518 -0.037756294 0.07551259 0.15857644 -0.05285881
-0.1283714 -0.037756294 0.07551259 -0.07551259 0.007551259 0.13592266 -0.045307554 -0.09061511
0.06041007 -0.030205036 0.15102518 -0.08306385 0.022653777 0.11326888 -0.045307554 -0.06796133
0.21898651 0.022653777 -0.022653777 0.09816637 -0.05285881 -0.10571762 0.10571762 -0.045307554
0.037756294 -0.11326888 -0.18123022 0.10571762 -0.10571762 -0.030205036 -0.07551259 -0.17367895
0.19633274 0.030205036 0.007551259 0.045307554 -0.06041007 -0.09061511 -0.030205036 -0.24919154
00000000: 8e8f 9685 6a89 8076 7d79 898b 7c78 8a84
00000010: 6f87 7d85 7965 8778 858d 807a 837b 946e
00000020: 8779 8067 8494 906f 767e 7a86 777a 797d
00000030: 7a7a 807e 7c82 7679 7c86 697d 8498 897b
00000040: 8581 8287 847a 896e 8a91 8464 8b89 737e
00000050: 9480 8588 8186 878a 756f 7f7e 777f 858b
00000060: 7e8c 8f85 8688 8183 7383 7c7d 7a7b 8682
00000070: 6e8e 7b80 7a7a 847e 777f 6e8a 6e7b 768e
00000080: 6681 6a85 878b 8c86 8480 6b85 727d 838a
00000090: 7f79 7a78 8a6f 8277 8485 8c84 9864 867d
000000a0: 948b 8094 7e7e 8868 8389 708c 6c86 8980
000000b0: 838b 6c7a 7f87 8275 7c80 727f 847a 8481
000000c0: 8094 8b83 8c8d 7c7f 8f76 6e7d 8a77 8591
000000d0: 8189 7f82 7b8a 9579 6f7b 8a76 8192 7a74
000000e0: 887c 9475 838f 7a77 9d83 7d8d 7972 8e7a
000000f0: 8571 688e 727c 7669 9a84 8186 7874 7c5f
