lib/mesa/src/gallium/targets/teflon/tests/yolox-081.tflite (tflite, 10720 bytes, 1 tensors)

tfl.pseudo_qconst49 u1 [96, 1, 1, 96] scale=0.009279006 zero_point=116
000000 6b 75 ac 3b 8a 75 69 76 a4 57 79 71 77 4c 64 6a
       -0.083511055 0.009279006 0.51962435 -0.52890337 0.20413813 0.009279006 -0.102069065 0.018558012 0.4453923 -0.2690912 0.04639503 -0.02783702 0.02783702 -0.37116024 -0.1484641 -0.09279006
000010 77 7c 76 7e 76 6e 68 49 50 6b 87 7f 8b 79 96 bf
       0.02783702 0.07423205 0.018558012 0.09279006 0.018558012 -0.05567404 -0.11134808 -0.39899728 -0.33404422 -0.083511055 0.17630112 0.102069065 0.21341714 0.04639503 0.31548622 0.6959255
000020 6b 62 52 56 81 86 74 73 72 8b 69 79 64 87 5b 8a
       -0.083511055 -0.16702211 -0.31548622 -0.27837017 0.12062708 0.16702211 0.0 -0.009279006 -0.018558012 0.21341714 -0.102069065 0.04639503 -0.1484641 0.17630112 -0.23197515 0.20413813
000030 75 73 62 87 61 5a 74 6d 67 66 5f 7b 7c 69 69 7b
       0.009279006 -0.009279006 -0.16702211 0.17630112 -0.17630112 -0.24125417 0.0 -0.064953044 -0.12062708 -0.12990609 -0.19485913 0.064953044 0.07423205 -0.102069065 -0.102069065 0.064953044
000040 78 65 76 70 79 5c 4d 5c 7a 72 57 7b 75 7a 76 3a
       0.037116025 -0.13918509 0.018558012 -0.037116025 0.04639503 -0.22269616 -0.36188123 -0.22269616 0.05567404 -0.018558012 -0.2690912 0.064953044 0.009279006 0.05567404 0.018558012 -0.5381824
000050 6b 57 87 8d 50 5e 61 75 73 73 4f 64 87 75 cc 4d
       -0.083511055 -0.2690912 0.17630112 0.23197515 -0.33404422 -0.20413813 -0.17630112 0.009279006 -0.009279006 -0.009279006 -0.34332323 -0.1484641 0.17630112 0.009279006 0.8165525 -0.36188123
000060 8a 49 7a 76 7d 6b 85 55 85 8f 68 6c 64 74 83 85
       0.20413813 -0.39899728 0.05567404 0.018558012 0.083511055 -0.083511055 0.15774311 -0.28764918 0.15774311 0.25053316 -0.11134808 -0.07423205 -0.1484641 0.0 0.13918509 0.15774311
000070 72 77 60 bb 72 72 7a 70 65 5e 47 57 6b 72 7d 75
       -0.018558012 0.02783702 -0.18558012 0.6588094 -0.018558012 -0.018558012 0.05567404 -0.037116025 -0.13918509 -0.20413813 -0.41755527 -0.2690912 -0.083511055 -0.018558012 0.083511055 0.009279006
000080 83 77 71 83 75 79 7b 5f 6c 67 73 73 7e 74 7e 72
       0.13918509 0.02783702 -0.02783702 0.13918509 0.009279006 0.04639503 0.064953044 -0.19485913 -0.07423205 -0.12062708 -0.009279006 -0.009279006 0.09279006 0.0 0.09279006 -0.018558012
000090 78 5f 64 63 7c 72 47 61 91 67 6f 7a 81 6a 6d 5e
       0.037116025 -0.19485913 -0.1484641 -0.15774311 0.07423205 -0.018558012 -0.41755527 -0.17630112 0.2690912 -0.12062708 -0.04639503 0.05567404 0.12062708 -0.09279006 -0.064953044 -0.20413813
0000a0 6b 70 79 a0 53 6b 6e 6f 79 a5 73 76 68 94 73 7e
       -0.083511055 -0.037116025 0.04639503 0.40827626 -0.3062072 -0.083511055 -0.05567404 -0.04639503 0.04639503 0.4546713 -0.009279006 0.018558012 -0.11134808 0.2969282 -0.009279006 0.09279006
0000b0 6d 89 69 69 6b 54 77 6a 80 78 72 7c 73 73 6a 5c
       -0.064953044 0.19485913 -0.102069065 -0.102069065 -0.083511055 -0.2969282 0.02783702 -0.09279006 0.11134808 0.037116025 -0.018558012 0.07423205 -0.009279006 -0.009279006 -0.09279006 -0.22269616
0000c0 79 90 7e 88 78 83 5a 52 79 5b 99 97 53 69 7d 6e
       0.04639503 0.25981218 0.09279006 0.18558012 0.037116025 0.13918509 -0.24125417 -0.31548622 0.04639503 -0.23197515 0.34332323 0.3247652 -0.3062072 -0.102069065 0.083511055 -0.05567404
0000d0 79 6e 59 79 68 5a 44 64 59 58 8d 31 66 67 92 6c
       0.04639503 -0.05567404 -0.25053316 0.04639503 -0.11134808 -0.24125417 -0.4453923 -0.1484641 -0.25053316 -0.25981218 0.23197515 -0.62169343 -0.12990609 -0.12062708 0.27837017 -0.07423205
0000e0 7c 7f 56 7f 79 78 65 75 67 70 55 7a 7b 61 59 8b
       0.07423205 0.102069065 -0.27837017 0.102069065 0.04639503 0.037116025 -0.13918509 0.009279006 -0.12062708 -0.037116025 -0.28764918 0.05567404 0.064953044 -0.17630112 -0.25053316 0.21341714
0000f0 7c 75 5f 7e 62 73 56 84 7c 6e 75 6c 74 6f 76 51
       0.07423205 0.009279006 -0.19485913 0.09279006 -0.16702211 -0.009279006 -0.27837017 0.1484641 0.07423205 -0.05567404 0.009279006 -0.07423205 0.0 -0.04639503 0.018558012 -0.3247652
