lib/mesa/src/gallium/targets/teflon/tests/yolox-047.tflite (tflite, 75616 bytes, 1 tensors)

tfl.pseudo_qconst28 u1 [192, 1, 1, 384] scale=0.0056596883 zero_point=114
-0.045277506 -0.17545034 0.06225657 -0.056596883 0.045277506 0.045277506 0.022638753 -0.016979065
0.016979065 0.0 -0.039617818 0.0056596883 -0.08489533 -0.0962147 0.03395813 0.0
-0.028298441 0.0056596883 -0.045277506 -0.028298441 -0.045277506 -0.06225657 -0.039617818 -0.10753408
-0.12451314 0.0113193765 0.022638753 -0.056596883 -0.0113193765 0.0113193765 0.07357594 -0.06791626
-0.022638753 -0.079235636 -0.050937194 0.08489533 -0.039617818 -0.022638753 0.0 -0.079235636
-0.03395813 -0.045277506 0.1414922 -0.07357594 -0.056596883 0.016979065 0.022638753 -0.11885345
-0.0962147 -0.14715189 0.06791626 0.03395813 0.0 0.079235636 0.07357594 -0.06791626
-0.03395813 0.079235636 -0.113193765 0.0 0.016979065 0.028298441 -0.039617818 0.045277506
-0.06225657 0.10753408 -0.0056596883 -0.039617818 -0.016979065 0.028298441 0.10753408 0.016979065
-0.045277506 -0.06225657 -0.0056596883 0.0056596883 -0.0113193765 -0.16413096 0.050937194 0.0
-0.016979065 -0.028298441 -0.20940846 -0.028298441 -0.016979065 -0.08489533 -0.09055501 -0.13583252
-0.045277506 0.022638753 -0.11885345 -0.016979065 0.039617818 0.022638753 -0.045277506 -0.0056596883
-0.06791626 -0.10753408 -0.16413096 0.045277506 0.0056596883 -0.056596883 -0.03395813 -0.022638753
-0.022638753 -0.14715189 -0.022638753 -0.06225657 0.016979065 0.113193765 -0.050937194 -0.016979065
0.0113193765 0.0056596883 0.0 -0.03395813 -0.06225657 -0.050937194 0.0 -0.12451314
-0.03395813 -0.050937194 -0.15281159 0.0113193765 0.0 -0.03395813 -0.045277506 0.0113193765
-0.0962147 -0.050937194 -0.022638753 -0.10753408 -0.07357594 -0.06225657 -0.022638753 0.016979065
-0.0056596883 -0.028298441 0.0 -0.06225657 0.022638753 0.016979065 -0.056596883 0.056596883
-0.0113193765 -0.13583252 0.0 0.113193765 -0.016979065 0.0056596883 0.056596883 0.079235636
0.028298441 -0.0113193765 0.12451314 -0.050937194 -0.10753408 0.08489533 -0.06791626 -0.016979065
0.039617818 -0.13017283 0.03395813 -0.045277506 0.06225657 0.016979065 0.08489533 0.06225657
0.11885345 0.113193765 -0.028298441 -0.028298441 0.09055501 -0.028298441 0.07357594 0.0
-0.028298441 -0.0113193765 -0.13583252 0.028298441 0.056596883 -0.0056596883 0.0 0.028298441
-0.0962147 -0.10187439 -0.039617818 0.08489533 0.06791626 0.06225657 0.06791626 -0.079235636
0.10187439 0.0056596883 -0.13017283 0.016979065 -0.0113193765 0.03395813 -0.03395813 -0.03395813
-0.0113193765 0.113193765 0.0 -0.09055501 -0.028298441 -0.016979065 0.045277506 -0.08489533
-0.016979065 -0.039617818 -0.045277506 0.0113193765 -0.050937194 0.039617818 0.022638753 -0.022638753
0.11885345 0.022638753 -0.17545034 -0.08489533 0.022638753 -0.06225657 0.028298441 -0.08489533
-0.06791626 0.16413096 -0.06791626 -0.045277506 0.0 0.039617818 -0.079235636 0.0
0.03395813 0.0113193765 0.028298441 -0.06791626 -0.09055501 0.03395813 0.0 -0.0056596883
-0.045277506 -0.06225657 -0.022638753 0.016979065 0.045277506 0.0056596883 0.039617818 0.050937194
-0.0056596883 0.10187439 -0.022638753 -0.079235636 0.0962147 0.045277506 0.06791626 -0.08489533
00000000: 6a53 7d68 7a7a 766f 7572 6b73 6361 7872
00000010: 6d73 6a6d 6a67 6b5f 5c74 7668 7074 7f66
00000020: 6e64 6981 6b6e 7264 6c6a 8b65 6875 765d
00000030: 6158 7e78 7280 7f66 6c80 5e72 7577 6b7a
00000040: 6785 716b 6f77 8575 6a67 7173 7055 7b72
00000050: 6f6d 4d6d 6f63 625a 6a76 5d6f 7976 6a71
00000060: 665f 557a 7368 6c6e 6e58 6e67 7586 696f
00000070: 7473 726c 6769 725c 6c69 5774 726c 6a74
00000080: 6169 6e5f 6567 6e75 716d 7267 7675 687c
00000090: 705a 7286 6f73 7c80 7770 8869 5f81 666f
000000a0: 795b 786a 7d75 817d 8786 6d6d 826d 7f72
000000b0: 6d70 5a77 7c71 7277 6160 6b81 7e7d 7e64
000000c0: 8473 5b75 7078 6c6c 7086 7262 6d6f 7a63
000000d0: 6f6b 6a74 6979 766e 8776 5363 7667 7763
000000e0: 668f 666a 7279 6472 7874 7766 6278 7271
000000f0: 6a67 6e75 7a73 797b 7184 6e64 837a 7e63
