lib/mesa/src/gallium/targets/teflon/tests/yolox-034.tflite (tflite, 84448 bytes, 1 tensors)

tfl.pseudo_qconst20 u1 [96, 3, 3, 96] scale=0.0019558999 zero_point=137
-0.021514898 -0.046941597 0.021514898 -0.0176031 0.013691299 -0.0078235995 -0.027382597 0.013691299
-0.0039117998 0.011735399 -0.0019558999 -0.0019558999 0.0078235995 -0.013691299 -0.0078235995 0.027382597
-0.0176031 -0.021514898 -0.013691299 -0.048897497 -0.015647199 -0.0704124 0.027382597 -0.0039117998
-0.031294398 0.019559 -0.025426699 -0.0019558999 -0.0097795 -0.015647199 -0.039118 -0.015647199
0.0 0.027382597 0.0039117998 0.019559 -0.015647199 0.0176031 -0.019559 0.0039117998
-0.0176031 -0.019559 -0.025426699 -0.0058676996 0.027382597 -0.0058676996 -0.0176031 -0.0078235995
0.013691299 0.0058676996 0.0078235995 -0.0176031 0.043029796 0.0039117998 -0.0078235995 -0.0019558999
-0.0078235995 -0.011735399 0.0019558999 -0.0019558999 0.0 -0.015647199 -0.0078235995 -0.0097795
-0.013691299 -0.0352062 0.048897497 -0.0371621 0.023470799 0.013691299 0.013691299 0.0097795
-0.0058676996 0.029338498 0.0 0.0058676996 -0.0019558999 -0.023470799 -0.0332503 -0.015647199
-0.0097795 -0.0078235995 -0.029338498 -0.0019558999 0.0 0.025426699 -0.0332503 -0.019559
-0.015647199 -0.013691299 -0.052809298 0.015647199 0.0039117998 0.023470799 0.0019558999 -0.0058676996
-0.0352062 0.0039117998 0.027382597 -0.023470799 -0.0176031 0.0371621 0.019559 -0.031294398
-0.011735399 0.0058676996 -0.013691299 0.0039117998 0.015647199 -0.0371621 -0.050853398 -0.011735399
0.0019558999 0.027382597 -0.019559 -0.027382597 -0.0058676996 -0.0039117998 0.0058676996 -0.0058676996
-0.056721095 -0.019559 0.0058676996 -0.021514898 0.011735399 -0.025426699 -0.015647199 -0.0078235995
-0.015647199 -0.031294398 0.027382597 -0.0058676996 -0.0039117998 0.015647199 0.0097795 0.043029796
-0.023470799 0.0 -0.0097795 -0.0078235995 0.027382597 -0.019559 -0.0097795 -0.0097795
-0.015647199 0.0058676996 -0.0058676996 -0.023470799 -0.013691299 -0.025426699 0.0176031 0.011735399
-0.0176031 0.0019558999 -0.0039117998 -0.015647199 0.027382597 -0.0019558999 0.0039117998 -0.015647199
0.021514898 -0.025426699 0.0176031 -0.039118 0.027382597 0.0176031 0.0176031 0.013691299
-0.013691299 0.031294398 0.029338498 0.0 0.0058676996 0.0 -0.015647199 -0.0097795
0.0078235995 0.013691299 -0.031294398 -0.015647199 -0.0176031 0.0078235995 -0.0332503 0.0
-0.044985697 -0.023470799 -0.041073896 0.011735399 -0.011735399 -0.0039117998 -0.0058676996 -0.0352062
-0.013691299 -0.013691299 0.019559 -0.027382597 -0.0097795 0.0097795 -0.0371621 0.0176031
0.015647199 -0.011735399 -0.0078235995 -0.019559 0.0352062 0.0058676996 -0.0176031 0.060632896
-0.0743242 0.0176031 -0.013691299 -0.011735399 0.0039117998 0.0176031 0.0332503 -0.023470799
-0.0743242 0.039118 -0.054765195 0.011735399 0.0176031 0.011735399 -0.062588796 -0.0097795
-0.0371621 -0.015647199 -0.0039117998 0.039118 0.041073896 0.043029796 -0.0097795 -0.0039117998
-0.031294398 -0.0078235995 -0.056721095 -0.050853398 0.0019558999 -0.06454469 -0.0058676996 -0.031294398
0.0 0.056721095 -0.0078235995 0.0097795 -0.0078235995 -0.0019558999 0.015647199 -0.0039117998
0.0332503 -0.021514898 -0.0078235995 0.015647199 -0.0078235995 -0.0039117998 0.0039117998 0.0019558999
00000000: 7e71 9480 9085 7b90 878f 8888 8d82 8597
00000010: 807e 8270 8165 9787 7993 7c88 8481 7581
00000020: 8997 8b93 8192 7f8b 807f 7c86 9786 8085
00000030: 908c 8d80 9f8b 8588 8583 8a88 8981 8584
00000040: 8277 a276 9590 908e 8698 898c 887d 7881
00000050: 8485 7a88 8996 787f 8182 6e91 8b95 8a86
00000060: 778b 977d 809c 9379 838c 828b 9176 6f83
00000070: 8a97 7f7b 8687 8c86 6c7f 8c7e 8f7c 8185
00000080: 8179 9786 8791 8e9f 7d89 8485 977f 8484
00000090: 818c 867d 827c 928f 808a 8781 9788 8b81
000000a0: 947c 9275 9792 9290 8299 9889 8c89 8184
000000b0: 8d90 7981 808d 7889 727d 748f 8387 8677
000000c0: 8282 937b 848e 7692 9183 857f 9b8c 80a8
000000d0: 6392 8283 8b92 9a7d 639d 6d8f 928f 6984
000000e0: 7681 879d 9e9f 8487 7985 6c6f 8a68 8679
000000f0: 89a6 858e 8588 9187 9a7e 8591 8587 8b8a
