lib/mesa/src/gallium/targets/teflon/tests/yolox-073.tflite (tflite, 22048 bytes, 1 tensors)

tfl.pseudo_qconst44 u1 [48, 3, 3, 48] scale=0.004022462 zero_point=147
0.0 -0.06033693 -0.016089847 -0.052292004 0.004022462 0.028157232 0.07240431 -0.11262893
-0.056314465 0.04424708 0.036202155 -0.02011231 -0.04826954 0.032179695 0.0 0.02413477
-0.036202155 0.028157232 -0.028157232 0.004022462 0.08044924 -0.036202155 -0.032179695 0.032179695
0.012067385 -0.052292004 0.008044924 -0.056314465 -0.04022462 0.07240431 0.012067385 0.056314465
0.08849416 -0.036202155 0.028157232 0.016089847 0.100561544 -0.06033693 -0.10458401 -0.056314465
0.016089847 0.11665139 0.04826954 0.02011231 -0.076426774 -0.02413477 0.004022462 0.084471695
-0.036202155 -0.02011231 -0.052292004 -0.16089848 -0.016089847 0.028157232 -0.04022462 -0.04826954
0.008044924 0.09251662 0.028157232 -0.02413477 0.04826954 -0.02413477 0.06435939 -0.004022462
0.07240431 -0.016089847 -0.06435939 -0.02011231 0.14883108 0.02413477 -0.04424708 -0.008044924
-0.008044924 0.036202155 -0.016089847 0.02011231 -0.14480862 -0.04022462 0.02413477 -0.032179695
0.06033693 0.004022462 0.016089847 0.0 0.004022462 -0.012067385 0.036202155 -0.02011231
0.052292004 0.04424708 -0.012067385 -0.02011231 -0.04826954 -0.04424708 0.02413477 -0.028157232
0.04826954 -0.04826954 -0.02011231 0.02413477 0.09653908 -0.032179695 -0.008044924 0.036202155
0.02011231 -0.06838185 -0.004022462 -0.04022462 -0.076426774 -0.11665139 0.004022462 -0.036202155
0.09653908 0.02413477 -0.004022462 0.032179695 -0.008044924 0.004022462 0.124696314 0.052292004
-0.02413477 -0.012067385 0.02413477 0.004022462 0.07240431 -0.07240431 0.028157232 -0.08044924
-0.056314465 -0.012067385 -0.04826954 0.10458401 0.004022462 0.02011231 0.008044924 0.08044924
-0.036202155 -0.06838185 0.036202155 0.04022462 0.052292004 0.02413477 -0.02413477 -0.016089847
0.084471695 -0.02011231 0.036202155 -0.056314465 -0.004022462 -0.008044924 0.02413477 -0.124696314
-0.008044924 -0.08044924 0.036202155 -0.032179695 -0.100561544 -0.16492094 0.008044924 0.02011231
-0.056314465 0.04022462 0.11665139 0.028157232 0.04424708 0.08044924 0.04022462 0.036202155
0.15285355 0.02413477 -0.04826954 0.012067385 -0.06033693 0.036202155 -0.028157232 0.04424708
0.02413477 0.004022462 -0.032179695 0.124696314 0.11665139 -0.012067385 0.18503325 -0.032179695
-0.056314465 -0.076426774 -0.04022462 -0.056314465 -0.012067385 -0.04424708 -0.004022462 -0.14078617
0.004022462 0.004022462 -0.02413477 -0.08044924 -0.04424708 0.0 -0.1367637 -0.052292004
-0.04826954 0.11262893 0.036202155 -0.12067386 -0.084471695 -0.056314465 0.028157232 0.032179695
0.07240431 0.016089847 -0.028157232 0.016089847 0.09653908 0.084471695 -0.02413477 -0.012067385
0.052292004 -0.02413477 -0.15285355 -0.02011231 -0.076426774 -0.08849416 -0.02413477 -0.016089847
0.124696314 -0.016089847 -0.084471695 0.12871878 0.21721295 0.012067385 -0.09653908 -0.10458401
0.13274124 0.1367637 0.0 -0.04826954 -0.12871878 0.056314465 -0.008044924 -0.15687601
-0.18905571 -0.04424708 -0.008044924 -0.06838185 0.008044924 -0.052292004 0.0 0.08849416
0.13274124 0.18503325 0.02413477 -0.28961724 -0.084471695 -0.036202155 -0.14078617 -0.04826954
00000000: 9384 8f86 949a a577 859e 9c8e 879b 9399
00000010: 8a9a 8c94 a78a 8b9b 9686 9585 89a5 96a1
00000020: a98a 9a97 ac84 7985 97b0 9f98 808d 94a8
00000030: 8a8e 866b 8f9a 8987 95aa 9a8d 9f8d a392
00000040: a58f 838e b899 8891 919c 8f98 6f89 998b
00000050: a294 9793 9490 9c8e a09e 908e 8788 998c
00000060: 9f87 8e99 ab8b 919c 9882 9289 8076 948a
00000070: ab99 929b 9194 b2a0 8d90 9994 a581 9a7f
00000080: 8590 87ad 9498 95a7 8a82 9c9d a099 8d8f
00000090: a88e 9c85 9291 9974 917f 9c8b 7a6a 9598
000000a0: 859d b09a 9ea7 9d9c b999 8796 849c 8c9e
000000b0: 9994 8bb2 b090 c18b 8580 8985 9088 9270
000000c0: 9494 8d7f 8893 7186 87af 9c75 7e85 9a9b
000000d0: a597 8c97 aba8 8d90 a08d 6d8e 807d 8d8f
000000e0: b28f 7eb3 c996 7b79 b4b5 9387 73a1 916c
000000f0: 6488 9182 9586 93a9 b4c1 994b 7e8a 7087
