lib/mesa/src/gallium/targets/teflon/tests/yolox-067.tflite (tflite, 38672 bytes, 1 tensors)

tfl.pseudo_qconst40 u1 [192, 1, 1, 192] scale=0.009241493 zero_point=148
000000 8d 95 76 72 a8 85 9c 9b 92 98 98 8f 8d 98 86 8d
       -0.064690456 0.009241493 -0.2772448 -0.31421077 0.18482986 -0.1386224 0.07393195 0.064690456 -0.018482987 0.036965974 0.036965974 -0.046207465 -0.064690456 0.036965974 -0.12938091 -0.064690456
000010 a4 ad 7b 95 7f 92 7d 75 9b a2 95 86 7d 8e ad b8
       0.1478639 0.23103733 -0.23103733 0.009241493 -0.19407137 -0.018482987 -0.21255435 -0.2864863 0.064690456 0.12938091 0.009241493 -0.12938091 -0.21255435 -0.05544896 0.23103733 0.33269376
000020 7f 83 9c 90 75 98 94 a9 8d 7f ab 96 80 87 8c a6
       -0.19407137 -0.15710539 0.07393195 -0.036965974 -0.2864863 0.036965974 0.0 0.19407137 -0.064690456 -0.19407137 0.21255435 0.018482987 -0.18482986 -0.12013941 -0.07393195 0.16634688
000030 9a 7b 94 8e 95 9e 99 a7 8e 95 9d 97 9e 7b 88 a6
       0.05544896 -0.23103733 0.0 -0.05544896 0.009241493 0.09241493 0.046207465 0.17558837 -0.05544896 0.009241493 0.08317344 0.02772448 0.09241493 -0.23103733 -0.11089792 0.16634688
000040 97 7d 93 9a 9c 87 8a 84 90 7d a2 7e 90 99 84 98
       0.02772448 -0.21255435 -0.009241493 0.05544896 0.07393195 -0.12013941 -0.09241493 -0.1478639 -0.036965974 -0.21255435 0.12938091 -0.20331286 -0.036965974 0.046207465 -0.1478639 0.036965974
000050 9b 84 68 7b a9 98 9e b4 81 92 95 87 b3 af 80 90
       0.064690456 -0.1478639 -0.40662572 -0.23103733 0.19407137 0.036965974 0.09241493 0.2957278 -0.17558837 -0.018482987 0.009241493 -0.12013941 0.2864863 0.24952032 -0.18482986 -0.036965974
000060 9c a4 92 8f 86 90 92 98 94 85 9f 88 95 8e a0 81
       0.07393195 0.1478639 -0.018482987 -0.046207465 -0.12938091 -0.036965974 -0.018482987 0.036965974 0.0 -0.1386224 0.10165643 -0.11089792 0.009241493 -0.05544896 0.11089792 -0.17558837
000070 87 82 81 91 8e 8d 98 8e a0 9d 8c 92 94 a6 96 8d
       -0.12013941 -0.16634688 -0.17558837 -0.02772448 -0.05544896 -0.064690456 0.036965974 -0.05544896 0.11089792 0.08317344 -0.07393195 -0.018482987 0.0 0.16634688 0.018482987 -0.064690456
000080 9a 88 90 9a 94 89 8e 8a ad a2 97 90 95 93 8e a3
       0.05544896 -0.11089792 -0.036965974 0.05544896 0.0 -0.10165643 -0.05544896 -0.09241493 0.23103733 0.12938091 0.02772448 -0.036965974 0.009241493 -0.009241493 -0.05544896 0.1386224
000090 90 90 82 8e a0 98 7e 92 8b a6 ab 8f 7f 89 8a 9c
       -0.036965974 -0.036965974 -0.16634688 -0.05544896 0.11089792 0.036965974 -0.20331286 -0.018482987 -0.08317344 0.16634688 0.21255435 -0.046207465 -0.19407137 -0.10165643 -0.09241493 0.07393195
0000a0 a6 93 a2 b4 92 8f a5 8c 95 86 81 9a 88 b1 84 89
       0.16634688 -0.009241493 0.12938091 0.2957278 -0.018482987 -0.046207465 0.15710539 -0.07393195 0.009241493 -0.12938091 -0.17558837 0.05544896 -0.11089792 0.2680033 -0.1478639 -0.10165643
0000b0 98 9d a9 a8 94 a1 a0 a9 87 ae 85 6d 8a 8e 85 95
       0.036965974 0.08317344 0.19407137 0.18482986 0.0 0.12013941 0.11089792 0.19407137 -0.12013941 0.24027883 -0.1386224 -0.36041823 -0.09241493 -0.05544896 -0.1386224 0.009241493
0000c0 a7 a0 a5 8f 8f a4 a2 96 9d 88 9b 92 af 97 8c 9a
       0.17558837 0.11089792 0.15710539 -0.046207465 -0.046207465 0.1478639 0.12938091 0.018482987 0.08317344 -0.11089792 0.064690456 -0.018482987 0.24952032 0.02772448 -0.07393195 0.05544896
0000d0 7b 95 97 94 96 9c a7 a3 8d 99 93 95 93 92 99 86
       -0.23103733 0.009241493 0.02772448 0.0 0.018482987 0.07393195 0.17558837 0.1386224 -0.064690456 0.046207465 -0.009241493 0.009241493 -0.009241493 -0.018482987 0.046207465 -0.12938091
0000e0 a2 91 a2 9b a0 94 b1 88 9a 85 93 9c 98 a5 a2 a2
       0.12938091 -0.02772448 0.12938091 0.064690456 0.11089792 0.0 0.2680033 -0.11089792 0.05544896 -0.1386224 -0.009241493 0.07393195 0.036965974 0.15710539 0.12938091 0.12938091
0000f0 a4 9c 96 97 8f 8e 92 9b 9d 92 8d 8d 8d 97 9f 8a
       0.1478639 0.07393195 0.018482987 0.02772448 -0.046207465 -0.05544896 -0.018482987 0.064690456 0.08317344 -0.018482987 -0.064690456 -0.064690456 -0.064690456 0.02772448 0.10165643 -0.09241493
