lib/mesa/src/gallium/targets/teflon/tests/yolox-024.tflite (tflite, 3536 bytes, 1 tensors)

tfl.pseudo_qconst13 u1 [48, 1, 1, 48] scale=0.0070440355 zero_point=113
00000000: 4142 478d 8171 7a80 7696 4ebe 665f 784e
00000010: 5a73 6a4b 6e73 8f5a 61a0 574f 8034 7160
00000020: a25b 4b94 5c62 4859 7697 716f 6364 5c58
00000030: 6e8f 6258 8578 9f89 65b4 612e 784c 7597
00000040: 547a 5e58 7885 844b 5b8d 537e 8c74 9a52
00000050: 8575 8962 5b45 6b5a 846f 3f76 5653 8871
00000060: 2a64 9b74 4c63 7c6e 6b7b 4e6f 7b5f 4e81
00000070: 9375 6a8f 8470 6d77 683e 7a68 5d69 a47b
00000080: 797a 688b 5ca2 6c5d 7c89 536d 7e45 705b
00000090: 777a 797e a66d ac3c 9942 6f8a 722a 4888
000000a0: 6177 7b23 6576 7319 6f4e 525b 25b3 7483
000000b0: 2e71 8e49 4696 9f23 cc6f 9c71 6a6f 8e4b
000000c0: 617c 6c53 6a97 7e6b aa49 446e 6a7f 6f98
000000d0: ae3b 9459 695b 9258 7778 5f58 84d7 0a6c
000000e0: 5059 6d6d 8197 5f53 5096 9372 7a6d 8f89
000000f0: 6b54 ab6e 4a67 535e 7778 7349 7d84 8a86
-0.3381137 -0.33106968 -0.2958495 0.19723299 0.11270457 0.0 0.06339632 0.105660535
0.035220176 0.26062933 -0.24654125 0.5423907 -0.07748439 -0.12679264 0.049308248 -0.24654125
-0.16201282 0.014088071 -0.049308248 -0.26767334 -0.021132106 0.014088071 0.21132107 -0.16201282
-0.11270457 0.33106968 -0.18314493 -0.2394972 0.105660535 -0.42968616 0.0 -0.1197486
0.34515774 -0.15496878 -0.26767334 0.24654125 -0.14792475 -0.105660535 -0.28880545 -0.16905685
0.035220176 0.26767334 0.0 -0.014088071 -0.098616496 -0.09157246 -0.14792475 -0.17610088
-0.021132106 0.21132107 -0.105660535 -0.17610088 0.1408807 0.049308248 0.32402563 0.16905685
-0.084528424 0.47195038 -0.11270457 -0.47195038 0.049308248 -0.26062933 0.028176142 0.26767334
-0.20427702 0.06339632 -0.13383667 -0.17610088 0.049308248 0.1408807 0.13383667 -0.26767334
-0.15496878 0.19723299 -0.21132107 0.09157246 0.19018896 0.021132106 0.28880545 -0.2183651
0.1408807 0.028176142 0.16905685 -0.105660535 -0.15496878 -0.30993757 -0.042264212 -0.16201282
0.13383667 -0.014088071 -0.35220176 0.035220176 -0.19018896 -0.21132107 0.16201282 0.0
-0.50012654 -0.09157246 0.2958495 0.021132106 -0.26062933 -0.098616496 0.07748439 -0.021132106
-0.042264212 0.07044035 -0.24654125 -0.014088071 0.07044035 -0.12679264 -0.24654125 0.11270457
0.2394972 0.028176142 -0.049308248 0.21132107 0.13383667 -0.0070440355 -0.028176142 0.042264212
-0.06339632 -0.3592458 0.06339632 -0.06339632 -0.1408807 -0.056352284 0.3592458 0.07044035
0.056352284 0.06339632 -0.06339632 0.18314493 -0.14792475 0.34515774 -0.035220176 -0.1408807
0.07748439 0.16905685 -0.21132107 -0.028176142 0.09157246 -0.30993757 -0.0070440355 -0.15496878
0.042264212 0.06339632 0.056352284 0.09157246 0.37333387 -0.028176142 0.4155981 -0.37333387
0.2817614 -0.33106968 -0.014088071 0.17610088 0.0070440355 -0.50012654 -0.28880545 0.16201282
-0.11270457 0.042264212 0.07044035 -0.5494348 -0.084528424 0.035220176 0.014088071 -0.61987513
-0.014088071 -0.24654125 -0.2183651 -0.15496878 -0.5353467 0.46490633 0.021132106 0.12679264
-0.47195038 0.0 0.20427702 -0.2817614 -0.30289352 0.26062933 0.32402563 -0.5494348
0.64100724 -0.014088071 0.30289352 0.0 -0.049308248 -0.014088071 0.20427702 -0.26767334
-0.11270457 0.07748439 -0.035220176 -0.21132107 -0.049308248 0.26767334 0.09157246 -0.042264212
0.40151003 -0.2817614 -0.31698158 -0.021132106 -0.049308248 0.098616496 -0.014088071 0.2747174
0.42968616 -0.38037792 0.24654125 -0.16905685 -0.056352284 -0.15496878 0.23245317 -0.17610088
0.042264212 0.049308248 -0.12679264 -0.17610088 0.13383667 0.7184916 -0.72553563 -0.035220176
-0.23245317 -0.16905685 -0.028176142 -0.028176142 0.11270457 0.26767334 -0.12679264 -0.21132107
-0.23245317 0.26062933 0.2394972 0.0070440355 0.06339632 -0.028176142 0.21132107 0.16905685
-0.042264212 -0.20427702 0.40855405 -0.021132106 -0.2747174 -0.07044035 -0.21132107 -0.13383667
0.042264212 0.049308248 0.014088071 -0.2817614 0.084528424 0.13383667 0.17610088 0.14792475
