lib/mesa/src/gallium/targets/teflon/tests/yolox-010.tflite (tflite, 6384 bytes, 1 tensors)

tfl.pseudo_qconst4 u1 [24, 3, 3, 24] scale=0.008958277 zero_point=141
00000000: 8698 8b88 8f87 8989 8c8d 8c8a 878d 8f87
00000010: 8c90 918d 908c 898c 8b87 908e 8e77 9084
00000020: 8395 8d92 9290 8893 938b 8a93 8a96 9390
00000030: 8b94 8c8c 9085 8d81 8d8e 8c8a 8e8d 8a80
00000040: 8f92 8d8b 8d8e 8d89 978f 9091 8b86 8f84
00000050: 8b92 8897 8694 878c 908d 8e8f 8d91 9283
00000060: 8c83 8682 9dc6 89b1 7e95 8e8b 929c 9f7d
00000070: 8f74 8497 8689 9774 8d84 9187 8d80 8c96
00000080: 9193 9092 918e 938b 908c 848b 8a8d 8789
00000090: 8c91 8789 8d8a 8b89 8c8c 928c 9090 8694
000000a0: 8c93 928a 8c89 8e94 8d82 869e 8477 929c
000000b0: 7697 8f8f 829b 9092 8e80 9396 9091 998a
000000c0: 8c8a 838d 8a7d 8a8d 888e 8f8f 8d8b 928f
000000d0: 8386 8e8c 8a8a 8e92 888e 8a8b 8e8f 8e8e
000000e0: 8e8e 8c8b 7692 8b94 888b 8c88 a487 9293
000000f0: 8591 8a83 8c92 968c 938d 8988 128b 8a8d
-0.06270794 0.09854105 -0.017916555 -0.044791386 0.017916555 -0.053749666 -0.03583311 -0.03583311
-0.008958277 0.0 -0.008958277 -0.026874833 -0.053749666 0.0 0.017916555 -0.053749666
-0.008958277 0.026874833 0.03583311 0.0 0.026874833 -0.008958277 -0.03583311 -0.008958277
-0.017916555 -0.053749666 0.026874833 0.008958277 0.008958277 -0.1970821 0.026874833 -0.0806245
-0.08958277 0.07166622 0.0 0.044791386 0.044791386 0.026874833 -0.044791386 0.053749666
0.053749666 -0.017916555 -0.026874833 0.053749666 -0.026874833 0.0806245 0.053749666 0.026874833
-0.017916555 0.06270794 -0.008958277 -0.008958277 0.026874833 -0.07166622 0.0 -0.10749933
0.0 0.008958277 -0.008958277 -0.026874833 0.008958277 0.0 -0.026874833 -0.116457604
0.017916555 0.044791386 0.0 -0.017916555 0.0 0.008958277 0.0 -0.03583311
0.08958277 0.017916555 0.026874833 0.03583311 -0.017916555 -0.06270794 0.017916555 -0.0806245
-0.017916555 0.044791386 -0.044791386 0.08958277 -0.06270794 0.06270794 -0.053749666 -0.008958277
0.026874833 0.0 0.008958277 0.017916555 0.0 0.03583311 0.044791386 -0.08958277
-0.008958277 -0.08958277 -0.06270794 -0.09854105 0.14333244 0.5106218 -0.03583311 0.322498
-0.13437416 0.07166622 0.008958277 -0.017916555 0.044791386 0.13437416 0.161249 -0.14333244
0.017916555 -0.22395693 -0.0806245 0.08958277 -0.06270794 -0.03583311 0.08958277 -0.22395693
0.0 -0.0806245 0.03583311 -0.053749666 0.0 -0.116457604 -0.008958277 0.0806245
0.03583311 0.053749666 0.026874833 0.044791386 0.03583311 0.008958277 0.053749666 -0.017916555
0.026874833 -0.008958277 -0.0806245 -0.017916555 -0.026874833 0.0 -0.053749666 -0.03583311
-0.008958277 0.03583311 -0.053749666 -0.03583311 0.0 -0.026874833 -0.017916555 -0.03583311
-0.008958277 -0.008958277 0.044791386 -0.008958277 0.026874833 0.026874833 -0.06270794 0.06270794
-0.008958277 0.053749666 0.044791386 -0.026874833 -0.008958277 -0.03583311 0.008958277 0.06270794
0.0 -0.09854105 -0.06270794 0.15229072 -0.0806245 -0.1970821 0.044791386 0.13437416
-0.20604038 0.08958277 0.017916555 0.017916555 -0.09854105 0.12541588 0.026874833 0.044791386
0.008958277 -0.116457604 0.053749666 0.0806245 0.026874833 0.03583311 0.10749933 -0.026874833
-0.008958277 -0.026874833 -0.08958277 0.0 -0.026874833 -0.14333244 -0.026874833 0.0
-0.044791386 0.008958277 0.017916555 0.017916555 0.0 -0.017916555 0.044791386 0.017916555
-0.08958277 -0.06270794 0.008958277 -0.008958277 -0.026874833 -0.026874833 0.008958277 0.044791386
-0.044791386 0.008958277 -0.026874833 -0.017916555 0.008958277 0.017916555 0.008958277 0.008958277
0.008958277 0.008958277 -0.008958277 -0.017916555 -0.20604038 0.044791386 -0.017916555 0.06270794
-0.044791386 -0.017916555 -0.008958277 -0.044791386 0.20604038 -0.053749666 0.044791386 0.053749666
-0.07166622 0.03583311 -0.026874833 -0.08958277 -0.008958277 0.044791386 0.0806245 -0.008958277
0.053749666 0.0 -0.03583311 -0.044791386 -1.1018682 -0.017916555 -0.026874833 0.0
