lib/mesa/src/gallium/targets/teflon/tests/yolox-018.tflite (tflite, 3616 bytes, 1 tensors)

tfl.pseudo_qconst9 u1 [48, 1, 1, 48] scale=0.02538566 zero_point=75
00000000: 445e 3064 544a 444b 4949 5162 3230 2d3f
00000010: 5a59 404b 2b49 4961 5360 5264 384a 485b
00000020: 523e 3225 3d54 5348 5e4f 354e 3644 513f
00000030: 4e45 3e2b 5549 4f71 493b 3e49 4a13 4861
00000040: 4829 614f 4e52 454e 2f48 423e 5045 3647
00000050: 4159 4f40 3e46 2366 5e59 4c41 325d 2e5f
00000060: 2118 0e3e 505a 6963 5022 375b 444e 364d
00000070: 5a60 2b31 1a55 3164 294e 1b41 6d2e 325c
00000080: 395c 544d 3455 4b4d 2845 6c30 1549 9832
00000090: 5053 456f 5935 3141 3c46 552c 5744 3c1e
000000a0: 3d53 5355 683d 4134 615d 262a 4320 6a47
000000b0: 563e 3b3c 462d 543d 7621 3b48 4c42 4d42
000000c0: 344f 6640 503c 3126 5b40 5562 2126 2d60
000000d0: 3a55 482d 2c60 4856 6b33 1928 4b35 2b51
000000e0: 2a6d 483d 213c 8e32 4a4c 664e 3936 4f49
000000f0: 5e4d 354f 4936 5046 3944 482f 504c 583d
-0.17769961 0.48232752 -0.6854128 0.63464147 0.22847094 -0.02538566 -0.17769961 0.0
-0.05077132 -0.05077132 0.15231395 0.5838702 -0.63464147 -0.6854128 -0.7615698 -0.3046279
0.3807849 0.35539922 -0.27924225 0.0 -0.8123411 -0.05077132 -0.05077132 0.5584845
0.20308527 0.5330988 0.17769961 0.63464147 -0.48232752 -0.02538566 -0.076156974 0.40617055
0.17769961 -0.33001357 -0.63464147 -0.96465504 -0.35539922 0.22847094 0.20308527 -0.076156974
0.48232752 0.10154264 -0.5584845 0.076156974 -0.5330988 -0.17769961 0.15231395 -0.3046279
0.076156974 -0.15231395 -0.33001357 -0.8123411 0.2538566 -0.05077132 0.10154264 0.96465504
-0.05077132 -0.40617055 -0.33001357 -0.05077132 -0.02538566 -1.4215969 -0.076156974 0.5584845
-0.076156974 -0.8631124 0.5584845 0.10154264 0.076156974 0.17769961 -0.15231395 0.076156974
-0.71079844 -0.076156974 -0.22847094 -0.33001357 0.1269283 -0.15231395 -0.5330988 -0.10154264
-0.2538566 0.35539922 0.10154264 -0.27924225 -0.33001357 -0.1269283 -1.0154264 0.6854128
0.48232752 0.35539922 0.02538566 -0.2538566 -0.63464147 0.45694187 -0.7361841 0.5077132
-1.0661976 -1.2946687 -1.5485252 -0.33001357 0.1269283 0.3807849 0.7615698 0.6092558
0.1269283 -1.040812 -0.5077132 0.40617055 -0.17769961 0.076156974 -0.5330988 0.05077132
0.3807849 0.5330988 -0.8123411 -0.66002715 -1.2438973 0.2538566 -0.66002715 0.63464147
-0.8631124 0.076156974 -1.2185116 -0.2538566 0.8631124 -0.7361841 -0.63464147 0.4315562
-0.45694187 0.4315562 0.22847094 0.05077132 -0.5838702 0.2538566 0.0 0.05077132
-0.88849807 -0.15231395 0.8377268 -0.6854128 -1.3708256 -0.05077132 1.9546957 -0.63464147
0.1269283 0.20308527 -0.15231395 0.91388375 0.35539922 -0.5584845 -0.66002715 -0.2538566
-0.3807849 -0.1269283 0.2538566 -0.7869554 0.3046279 -0.17769961 -0.3807849 -1.1423546
-0.35539922 0.20308527 0.20308527 0.2538566 0.7361841 -0.35539922 -0.2538566 -0.5838702
0.5584845 0.45694187 -0.93926936 -0.8377268 -0.20308527 -1.0915834 0.7869554 -0.10154264
0.27924225 -0.33001357 -0.40617055 -0.3807849 -0.1269283 -0.7615698 0.22847094 -0.35539922
1.0915834 -1.0661976 -0.40617055 -0.076156974 0.02538566 -0.22847094 0.05077132 -0.22847094
-0.5838702 0.10154264 0.6854128 -0.27924225 0.1269283 -0.3807849 -0.66002715 -0.93926936
0.40617055 -0.27924225 0.2538566 0.5838702 -1.0661976 -0.93926936 -0.7615698 0.5330988
-0.4315562 0.2538566 -0.076156974 -0.7615698 -0.7869554 0.5330988 -0.076156974 0.27924225
0.8123411 -0.6092558 -1.2692829 -0.88849807 0.0 -0.5584845 -0.8123411 0.15231395
-0.8377268 0.8631124 -0.076156974 -0.35539922 -1.0661976 -0.3807849 1.7008392 -0.63464147
-0.02538566 0.02538566 0.6854128 0.076156974 -0.45694187 -0.5330988 0.10154264 -0.05077132
0.48232752 0.05077132 -0.5584845 0.10154264 -0.05077132 -0.5330988 0.1269283 -0.1269283
-0.45694187 -0.17769961 -0.076156974 -0.71079844 0.1269283 0.02538566 0.33001357 -0.35539922
