lib/mesa/src/gallium/targets/teflon/tests/yolox-068.tflite (tflite, 19936 bytes, 1 tensors)

tfl.pseudo_qconst41 u1 [96, 1, 1, 192] scale=0.004644578 zero_point=131
0	0x76	-0.060379513
1	0x96	0.08824698
2	0x77	-0.055734932
3	0x95	0.0836024
4	0x91	0.06502409
5	0x8b	0.037156623
6	0x84	0.004644578
7	0x7b	-0.037156623
8	0x7c	-0.032512046
9	0x99	0.10218071
10	0x80	-0.013933733
11	0x80	-0.013933733
12	0x80	-0.013933733
13	0x83	0.0
14	0xa4	0.15327106
15	0x87	0.018578311
16	0x87	0.018578311
17	0x87	0.018578311
18	0x71	-0.0836024
19	0x80	-0.013933733
20	0x72	-0.078957826
21	0x78	-0.051090356
22	0x7d	-0.027867466
23	0x99	0.10218071
24	0x8e	0.051090356
25	0x75	-0.06502409
26	0x8e	0.051090356
27	0xa0	0.13469276
28	0x77	-0.055734932
29	0x83	0.0
30	0x73	-0.074313246
31	0x8a	0.032512046
32	0x84	0.004644578
33	0x6c	-0.10682529
34	0x9b	0.111469865
35	0x7d	-0.027867466
36	0x88	0.02322289
37	0x85	0.009289156
38	0x73	-0.074313246
39	0x6e	-0.09753613
40	0x71	-0.0836024
41	0xa3	0.14862649
42	0x7a	-0.0418012
43	0xac	0.19042769
44	0x80	-0.013933733
45	0x9e	0.1254036
46	0x94	0.078957826
47	0x6a	-0.116114445
48	0x93	0.074313246
49	0x77	-0.055734932
50	0x87	0.018578311
51	0x8e	0.051090356
52	0x8f	0.055734932
53	0x59	-0.19507226
54	0x85	0.009289156
55	0x8d	0.04644578
56	0xa9	0.17649396
57	0x9c	0.116114445
58	0x82	-0.004644578
59	0x8c	0.0418012
60	0x84	0.004644578
61	0x93	0.074313246
62	0x81	-0.009289156
63	0x80	-0.013933733
64	0x82	-0.004644578
65	0x70	-0.08824698
66	0x9a	0.10682529
67	0x6b	-0.111469865
68	0x64	-0.14398192
69	0x8a	0.032512046
70	0xa0	0.13469276
71	0x7b	-0.037156623
72	0xac	0.19042769
73	0x7c	-0.032512046
74	0x89	0.027867466
75	0x6f	-0.09289156
76	0x78	-0.051090356
77	0x73	-0.074313246
78	0x9c	0.116114445
79	0x7d	-0.027867466
80	0x92	0.069668666
81	0x3f	-0.3158313
82	0xa5	0.15791565
83	0x7c	-0.032512046
84	0x69	-0.120759025
85	0x7d	-0.027867466
86	0x98	0.09753613
87	0x79	-0.04644578
88	0x89	0.027867466
89	0x82	-0.004644578
90	0x70	-0.08824698
91	0xaa	0.18113853
92	0x79	-0.04644578
93	0x7f	-0.018578311
94	0xab	0.18578312
95	0x66	-0.13469276
96	0x5f	-0.1672048
97	0x84	0.004644578
98	0x94	0.078957826
99	0x86	0.013933733
100	0x79	-0.04644578
101	0x7d	-0.027867466
102	0x8a	0.032512046
103	0x82	-0.004644578
104	0x7d	-0.027867466
105	0x80	-0.013933733
106	0x6c	-0.10682529
107	0x69	-0.120759025
108	0xa6	0.16256022
109	0x71	-0.0836024
110	0x7a	-0.0418012
111	0x8c	0.0418012
112	0x98	0.09753613
113	0x87	0.018578311
114	0x72	-0.078957826
115	0x88	0.02322289
116	0x82	-0.004644578
117	0x7f	-0.018578311
118	0xa4	0.15327106
119	0x6c	-0.10682529
120	0xa5	0.15791565
121	0x7b	-0.037156623
122	0x93	0.074313246
123	0x7a	-0.0418012
124	0x7d	-0.027867466
125	0x72	-0.078957826
126	0xb1	0.21365058
127	0x8b	0.037156623
128	0x8e	0.051090356
129	0x7d	-0.027867466
130	0xaa	0.18113853
131	0x92	0.069668666
132	0x75	-0.06502409
133	0x85	0.009289156
134	0x76	-0.060379513
135	0x94	0.078957826
136	0x74	-0.069668666
137	0x72	-0.078957826
138	0x8d	0.04644578
139	0x74	-0.069668666
140	0x94	0.078957826
141	0x90	0.060379513
142	0x77	-0.055734932
143	0x5c	-0.18113853
144	0x73	-0.074313246
145	0x9b	0.111469865
146	0x93	0.074313246
147	0x6a	-0.116114445
148	0x88	0.02322289
149	0x90	0.060379513
150	0x87	0.018578311
151	0x89	0.027867466
152	0x7c	-0.032512046
153	0x85	0.009289156
154	0xa4	0.15327106
155	0x5e	-0.17184938
156	0x7c	-0.032512046
157	0xa1	0.13933733
158	0x76	-0.060379513
159	0x86	0.013933733
160	0x92	0.069668666
161	0xb6	0.23687348
162	0x75	-0.06502409
163	0x99	0.10218071
164	0x8b	0.037156623
165	0x7b	-0.037156623
166	0x59	-0.19507226
167	0x65	-0.13933733
168	0x80	-0.013933733
169	0xa3	0.14862649
170	0x93	0.074313246
171	0x7f	-0.018578311
172	0x88	0.02322289
173	0x64	-0.14398192
174	0x93	0.074313246
175	0x6c	-0.10682529
176	0x7a	-0.0418012
177	0x78	-0.051090356
178	0x99	0.10218071
179	0xa1	0.13933733
180	0x7c	-0.032512046
181	0x6b	-0.111469865
182	0x85	0.009289156
183	0x76	-0.060379513
184	0x98	0.09753613
185	0x79	-0.04644578
186	0x83	0.0
187	0x92	0.069668666
188	0x6c	-0.10682529
189	0x79	-0.04644578
190	0x80	-0.013933733
191	0x6e	-0.09753613
192	0x92	0.069668666
193	0x8b	0.037156623
194	0x67	-0.13004819
195	0x75	-0.06502409
196	0x7a	-0.0418012
197	0x6c	-0.10682529
198	0x87	0.018578311
199	0x7f	-0.018578311
200	0xa3	0.14862649
201	0x78	-0.051090356
202	0x67	-0.13004819
203	0x7c	-0.032512046
204	0x82	-0.004644578
205	0x8f	0.055734932
206	0x94	0.078957826
207	0x9d	0.120759025
208	0x81	-0.009289156
209	0x8b	0.037156623
210	0x5b	-0.18578312
211	0x68	-0.1254036
212	0x85	0.009289156
213	0x76	-0.060379513
214	0x98	0.09753613
215	0x85	0.009289156
216	0x77	-0.055734932
217	0x85	0.009289156
218	0x62	-0.15327106
219	0x73	-0.074313246
220	0x94	0.078957826
221	0xa3	0.14862649
222	0x87	0.018578311
223	0x8b	0.037156623
224	0x95	0.0836024
225	0x7c	-0.032512046
226	0x9e	0.1254036
227	0x70	-0.08824698
228	0x4e	-0.24616262
229	0x75	-0.06502409
230	0x9d	0.120759025
231	0x77	-0.055734932
232	0x47	-0.27867466
233	0x68	-0.1254036
234	0x8e	0.051090356
235	0x6c	-0.10682529
236	0x81	-0.009289156
237	0x82	-0.004644578
238	0x77	-0.055734932
239	0x7b	-0.037156623
240	0x7a	-0.0418012
241	0x67	-0.13004819
242	0x92	0.069668666
243	0x8b	0.037156623
244	0x6b	-0.111469865
245	0xb2	0.21829516
246	0x81	-0.009289156
247	0xa9	0.17649396
248	0xa1	0.13933733
249	0x96	0.08824698
250	0x3d	-0.32512045
251	0x7c	-0.032512046
252	0x9a	0.10682529
253	0x98	0.09753613
254	0x4d	-0.2508072
255	0xa6	0.16256022
